#map = affine_map<(d0, d1, d2, d3) -> (d1)>
#map1 = affine_map<(d0, d1, d2, d3) -> (d0, d1, d2, d3)>
#map2 = affine_map<(d0, d1, d2, d3) -> (0, d1, d2, d3)>
#map3 = affine_map<(d0, d1, d2, d3, d4) -> (d0, d1, d2, d3, d4)>
#map4 = affine_map<(d0, d1, d2, d3, d4) -> (d0, d1, d3, d4, d2)>
#map5 = affine_map<(d0, d1, d2, d3, d4) -> (0, d1, d2, d3, d4)>
#map6 = affine_map<(d0) -> (d0)>
#map7 = affine_map<(d0, d1) -> (d0, 0)>
#map8 = affine_map<(d0, d1) -> (d0, d1)>
#map9 = affine_map<(d0, d1) -> (0, d1)>
#map10 = affine_map<(d0, d1, d2, d3, d4) -> (d2, d3, d4)>
#map11 = affine_map<(d0, d1) -> ()>
#map12 = affine_map<(d0, d1, d2, d3, d4) -> (d0, d1, 0, 0, d4)>
#map13 = affine_map<(d0, d1, d2, d3, d4) -> ()>
module attributes {torch.debug_module_name = "_lambda"} {
  ml_program.global private mutable @global_seed(dense<0> : tensor<i64>) : tensor<i64>
  func.func @forward(%arg0: tensor<1x3x640x640xf32>) -> tensor<1x25200x85xf32> {
    %cst = arith.constant dense_resource<__elided__> : tensor<255xf32>
    %cst_0 = arith.constant dense_resource<__elided__> : tensor<255x512x1x1xf32>
    %cst_1 = arith.constant dense_resource<__elided__> : tensor<255xf32>
    %cst_2 = arith.constant dense_resource<__elided__> : tensor<255x256x1x1xf32>
    %cst_3 = arith.constant dense_resource<__elided__> : tensor<3xf32>
    %cst_4 = arith.constant dense_resource<__elided__> : tensor<3x3x2xf32>
    %cst_5 = arith.constant dense_resource<__elided__> : tensor<255xf32>
    %cst_6 = arith.constant dense_resource<__elided__> : tensor<255x128x1x1xf32>
    %cst_7 = arith.constant dense_resource<__elided__> : tensor<512xf32>
    %cst_8 = arith.constant dense_resource<__elided__> : tensor<512x512x1x1xf32>
    %cst_9 = arith.constant dense_resource<__elided__> : tensor<256xf32>
    %cst_10 = arith.constant dense_resource<__elided__> : tensor<256x512x1x1xf32>
    %cst_11 = arith.constant dense_resource<__elided__> : tensor<256xf32>
    %cst_12 = arith.constant dense_resource<__elided__> : tensor<256x256x3x3xf32>
    %cst_13 = arith.constant dense_resource<__elided__> : tensor<256xf32>
    %cst_14 = arith.constant dense_resource<__elided__> : tensor<256x256x1x1xf32>
    %cst_15 = arith.constant dense_resource<__elided__> : tensor<256xf32>
    %cst_16 = arith.constant dense_resource<__elided__> : tensor<256x512x1x1xf32>
    %cst_17 = arith.constant dense_resource<__elided__> : tensor<256xf32>
    %cst_18 = arith.constant dense_resource<__elided__> : tensor<256x256x3x3xf32>
    %cst_19 = arith.constant dense_resource<__elided__> : tensor<256xf32>
    %cst_20 = arith.constant dense_resource<__elided__> : tensor<256x256x1x1xf32>
    %cst_21 = arith.constant dense_resource<__elided__> : tensor<128xf32>
    %cst_22 = arith.constant dense_resource<__elided__> : tensor<128x256x1x1xf32>
    %cst_23 = arith.constant dense_resource<__elided__> : tensor<128xf32>
    %cst_24 = arith.constant dense_resource<__elided__> : tensor<128x128x3x3xf32>
    %cst_25 = arith.constant dense_resource<__elided__> : tensor<128xf32>
    %cst_26 = arith.constant dense_resource<__elided__> : tensor<128x128x1x1xf32>
    %cst_27 = arith.constant dense_resource<__elided__> : tensor<128xf32>
    %cst_28 = arith.constant dense_resource<__elided__> : tensor<128x256x1x1xf32>
    %cst_29 = arith.constant dense_resource<__elided__> : tensor<128xf32>
    %cst_30 = arith.constant dense_resource<__elided__> : tensor<128x128x3x3xf32>
    %cst_31 = arith.constant dense_resource<__elided__> : tensor<128xf32>
    %cst_32 = arith.constant dense_resource<__elided__> : tensor<128x128x1x1xf32>
    %cst_33 = arith.constant dense_resource<__elided__> : tensor<64xf32>
    %cst_34 = arith.constant dense_resource<__elided__> : tensor<64x256x1x1xf32>
    %cst_35 = arith.constant dense_resource<__elided__> : tensor<64xf32>
    %cst_36 = arith.constant dense_resource<__elided__> : tensor<64x64x3x3xf32>
    %cst_37 = arith.constant dense_resource<__elided__> : tensor<64xf32>
    %cst_38 = arith.constant dense_resource<__elided__> : tensor<64x64x1x1xf32>
    %cst_39 = arith.constant dense_resource<__elided__> : tensor<64xf32>
    %cst_40 = arith.constant dense_resource<__elided__> : tensor<64x256x1x1xf32>
    %cst_41 = arith.constant dense_resource<__elided__> : tensor<128xf32>
    %cst_42 = arith.constant dense_resource<__elided__> : tensor<128x256x1x1xf32>
    %cst_43 = arith.constant dense_resource<__elided__> : tensor<256xf32>
    %cst_44 = arith.constant dense_resource<__elided__> : tensor<256x256x1x1xf32>
    %cst_45 = arith.constant dense_resource<__elided__> : tensor<128xf32>
    %cst_46 = arith.constant dense_resource<__elided__> : tensor<128x512x1x1xf32>
    %cst_47 = arith.constant dense_resource<__elided__> : tensor<128xf32>
    %cst_48 = arith.constant dense_resource<__elided__> : tensor<128x128x3x3xf32>
    %cst_49 = arith.constant dense_resource<__elided__> : tensor<128xf32>
    %cst_50 = arith.constant dense_resource<__elided__> : tensor<128x128x1x1xf32>
    %cst_51 = arith.constant dense_resource<__elided__> : tensor<128xf32>
    %cst_52 = arith.constant dense_resource<__elided__> : tensor<128x512x1x1xf32>
    %cst_53 = arith.constant dense_resource<__elided__> : tensor<256xf32>
    %cst_54 = arith.constant dense_resource<__elided__> : tensor<256x512x1x1xf32>
    %cst_55 = arith.constant dense_resource<__elided__> : tensor<512xf32>
    %cst_56 = arith.constant dense_resource<__elided__> : tensor<512x1024x1x1xf32>
    %cst_57 = arith.constant dense_resource<__elided__> : tensor<256xf32>
    %cst_58 = arith.constant dense_resource<__elided__> : tensor<256x512x1x1xf32>
    %cst_59 = arith.constant dense_resource<__elided__> : tensor<512xf32>
    %cst_60 = arith.constant dense_resource<__elided__> : tensor<512x512x1x1xf32>
    %cst_61 = arith.constant dense_resource<__elided__> : tensor<256xf32>
    %cst_62 = arith.constant dense_resource<__elided__> : tensor<256x512x1x1xf32>
    %cst_63 = arith.constant dense_resource<__elided__> : tensor<256xf32>
    %cst_64 = arith.constant dense_resource<__elided__> : tensor<256x256x3x3xf32>
    %cst_65 = arith.constant dense_resource<__elided__> : tensor<256xf32>
    %cst_66 = arith.constant dense_resource<__elided__> : tensor<256x256x1x1xf32>
    %cst_67 = arith.constant dense_resource<__elided__> : tensor<256xf32>
    %cst_68 = arith.constant dense_resource<__elided__> : tensor<256x512x1x1xf32>
    %cst_69 = arith.constant dense_resource<__elided__> : tensor<512xf32>
    %cst_70 = arith.constant dense_resource<__elided__> : tensor<512x256x3x3xf32>
    %cst_71 = arith.constant dense_resource<__elided__> : tensor<256xf32>
    %cst_72 = arith.constant dense_resource<__elided__> : tensor<256x256x1x1xf32>
    %cst_73 = arith.constant dense_resource<__elided__> : tensor<128xf32>
    %cst_74 = arith.constant dense_resource<__elided__> : tensor<128x256x1x1xf32>
    %cst_75 = arith.constant dense_resource<__elided__> : tensor<128xf32>
    %cst_76 = arith.constant dense_resource<__elided__> : tensor<128x128x3x3xf32>
    %cst_77 = arith.constant dense_resource<__elided__> : tensor<128xf32>
    %cst_78 = arith.constant dense_resource<__elided__> : tensor<128x128x1x1xf32>
    %cst_79 = arith.constant dense_resource<__elided__> : tensor<128xf32>
    %cst_80 = arith.constant dense_resource<__elided__> : tensor<128x128x3x3xf32>
    %cst_81 = arith.constant dense_resource<__elided__> : tensor<128xf32>
    %cst_82 = arith.constant dense_resource<__elided__> : tensor<128x128x1x1xf32>
    %cst_83 = arith.constant dense_resource<__elided__> : tensor<128xf32>
    %cst_84 = arith.constant dense_resource<__elided__> : tensor<128x128x3x3xf32>
    %cst_85 = arith.constant dense_resource<__elided__> : tensor<128xf32>
    %cst_86 = arith.constant dense_resource<__elided__> : tensor<128x128x1x1xf32>
    %cst_87 = arith.constant dense_resource<__elided__> : tensor<128xf32>
    %cst_88 = arith.constant dense_resource<__elided__> : tensor<128x256x1x1xf32>
    %cst_89 = arith.constant dense_resource<__elided__> : tensor<256xf32>
    %cst_90 = arith.constant dense_resource<__elided__> : tensor<256x128x3x3xf32>
    %cst_91 = arith.constant dense_resource<__elided__> : tensor<128xf32>
    %cst_92 = arith.constant dense_resource<__elided__> : tensor<128x128x1x1xf32>
    %cst_93 = arith.constant dense_resource<__elided__> : tensor<64xf32>
    %cst_94 = arith.constant dense_resource<__elided__> : tensor<64x128x1x1xf32>
    %cst_95 = arith.constant dense_resource<__elided__> : tensor<64xf32>
    %cst_96 = arith.constant dense_resource<__elided__> : tensor<64x64x3x3xf32>
    %cst_97 = arith.constant dense_resource<__elided__> : tensor<64xf32>
    %cst_98 = arith.constant dense_resource<__elided__> : tensor<64x64x1x1xf32>
    %cst_99 = arith.constant dense_resource<__elided__> : tensor<64xf32>
    %cst_100 = arith.constant dense_resource<__elided__> : tensor<64x64x3x3xf32>
    %cst_101 = arith.constant dense_resource<__elided__> : tensor<64xf32>
    %cst_102 = arith.constant dense_resource<__elided__> : tensor<64x64x1x1xf32>
    %cst_103 = arith.constant dense_resource<__elided__> : tensor<64xf32>
    %cst_104 = arith.constant dense_resource<__elided__> : tensor<64x128x1x1xf32>
    %cst_105 = arith.constant dense_resource<__elided__> : tensor<128xf32>
    %cst_106 = arith.constant dense_resource<__elided__> : tensor<128x64x3x3xf32>
    %cst_107 = arith.constant dense_resource<__elided__> : tensor<64xf32>
    %cst_108 = arith.constant dense_resource<__elided__> : tensor<64x64x1x1xf32>
    %cst_109 = arith.constant dense_resource<__elided__> : tensor<32xf32>
    %cst_110 = arith.constant dense_resource<__elided__> : tensor<32x64x1x1xf32>
    %cst_111 = arith.constant dense_resource<__elided__> : tensor<32xf32>
    %cst_112 = arith.constant dense_resource<__elided__> : tensor<32x32x3x3xf32>
    %cst_113 = arith.constant dense_resource<__elided__> : tensor<32xf32>
    %cst_114 = arith.constant dense_resource<__elided__> : tensor<32x32x1x1xf32>
    %cst_115 = arith.constant dense_resource<__elided__> : tensor<32xf32>
    %cst_116 = arith.constant dense_resource<__elided__> : tensor<32x64x1x1xf32>
    %cst_117 = arith.constant dense_resource<__elided__> : tensor<64xf32>
    %cst_118 = arith.constant dense_resource<__elided__> : tensor<64x32x3x3xf32>
    %cst_119 = arith.constant dense_resource<__elided__> : tensor<32xf32>
    %cst_120 = arith.constant dense_resource<__elided__> : tensor<32x3x6x6xf32>
    %cst_121 = arith.constant 0xFF800000 : f32
    %cst_122 = arith.constant 5.000000e-01 : f32
    %cst_123 = arith.constant 2.000000e+00 : f32
    %cst_124 = arith.constant 0.000000e+00 : f32
    %cst_125 = arith.constant 1.000000e+00 : f32
    %c0 = arith.constant 0 : index
    %c2 = arith.constant 2 : index
    %c1 = arith.constant 1 : index
    %padded = tensor.pad %arg0 low[0, 0, 2, 2] high[0, 0, 2, 2] {
    ^bb0(%arg1: index, %arg2: index, %arg3: index, %arg4: index):
      tensor.yield %cst_124 : f32
    } : tensor<1x3x640x640xf32> to tensor<1x3x644x644xf32>
    %0 = tensor.empty() : tensor<1x32x320x320xf32>
    %1 = linalg.generic {indexing_maps = [#map, #map1], iterator_types = ["parallel", "parallel", "parallel", "parallel"]} ins(%cst_119 : tensor<32xf32>) outs(%0 : tensor<1x32x320x320xf32>) {
    ^bb0(%in: f32, %out: f32):
      linalg.yield %in : f32
    } -> tensor<1x32x320x320xf32>
    %2 = linalg.conv_2d_nchw_fchw {dilations = dense<1> : vector<2xi64>, strides = dense<2> : vector<2xi64>} ins(%padded, %cst_120 : tensor<1x3x644x644xf32>, tensor<32x3x6x6xf32>) outs(%1 : tensor<1x32x320x320xf32>) -> tensor<1x32x320x320xf32>
    %3 = linalg.generic {indexing_maps = [#map2, #map1], iterator_types = ["parallel", "parallel", "parallel", "parallel"]} ins(%2 : tensor<1x32x320x320xf32>) outs(%0 : tensor<1x32x320x320xf32>) {
    ^bb0(%in: f32, %out: f32):
      %321 = arith.negf %in : f32
      %322 = math.exp %321 : f32
      %323 = arith.addf %322, %cst_125 : f32
      %324 = arith.divf %cst_125, %323 : f32
      linalg.yield %324 : f32
    } -> tensor<1x32x320x320xf32>
    %4 = linalg.generic {indexing_maps = [#map2, #map2, #map1], iterator_types = ["parallel", "parallel", "parallel", "parallel"]} ins(%3, %2 : tensor<1x32x320x320xf32>, tensor<1x32x320x320xf32>) outs(%0 : tensor<1x32x320x320xf32>) {
    ^bb0(%in: f32, %in_204: f32, %out: f32):
      %321 = arith.mulf %in, %in_204 : f32
      linalg.yield %321 : f32
    } -> tensor<1x32x320x320xf32>
    %padded_126 = tensor.pad %4 low[0, 0, 1, 1] high[0, 0, 1, 1] {
    ^bb0(%arg1: index, %arg2: index, %arg3: index, %arg4: index):
      tensor.yield %cst_124 : f32
    } : tensor<1x32x320x320xf32> to tensor<1x32x322x322xf32>
    %5 = tensor.empty() : tensor<1x64x160x160xf32>
    %6 = linalg.generic {indexing_maps = [#map, #map1], iterator_types = ["parallel", "parallel", "parallel", "parallel"]} ins(%cst_117 : tensor<64xf32>) outs(%5 : tensor<1x64x160x160xf32>) {
    ^bb0(%in: f32, %out: f32):
      linalg.yield %in : f32
    } -> tensor<1x64x160x160xf32>
    %7 = linalg.conv_2d_nchw_fchw {dilations = dense<1> : vector<2xi64>, strides = dense<2> : vector<2xi64>} ins(%padded_126, %cst_118 : tensor<1x32x322x322xf32>, tensor<64x32x3x3xf32>) outs(%6 : tensor<1x64x160x160xf32>) -> tensor<1x64x160x160xf32>
    %8 = linalg.generic {indexing_maps = [#map2, #map1], iterator_types = ["parallel", "parallel", "parallel", "parallel"]} ins(%7 : tensor<1x64x160x160xf32>) outs(%5 : tensor<1x64x160x160xf32>) {
    ^bb0(%in: f32, %out: f32):
      %321 = arith.negf %in : f32
      %322 = math.exp %321 : f32
      %323 = arith.addf %322, %cst_125 : f32
      %324 = arith.divf %cst_125, %323 : f32
      linalg.yield %324 : f32
    } -> tensor<1x64x160x160xf32>
    %9 = linalg.generic {indexing_maps = [#map2, #map2, #map1], iterator_types = ["parallel", "parallel", "parallel", "parallel"]} ins(%8, %7 : tensor<1x64x160x160xf32>, tensor<1x64x160x160xf32>) outs(%5 : tensor<1x64x160x160xf32>) {
    ^bb0(%in: f32, %in_204: f32, %out: f32):
      %321 = arith.mulf %in, %in_204 : f32
      linalg.yield %321 : f32
    } -> tensor<1x64x160x160xf32>
    %10 = tensor.empty() : tensor<1x32x160x160xf32>
    %11 = linalg.generic {indexing_maps = [#map, #map1], iterator_types = ["parallel", "parallel", "parallel", "parallel"]} ins(%cst_115 : tensor<32xf32>) outs(%10 : tensor<1x32x160x160xf32>) {
    ^bb0(%in: f32, %out: f32):
      linalg.yield %in : f32
    } -> tensor<1x32x160x160xf32>
    %12 = linalg.conv_2d_nchw_fchw {dilations = dense<1> : vector<2xi64>, strides = dense<1> : vector<2xi64>} ins(%9, %cst_116 : tensor<1x64x160x160xf32>, tensor<32x64x1x1xf32>) outs(%11 : tensor<1x32x160x160xf32>) -> tensor<1x32x160x160xf32>
    %13 = linalg.generic {indexing_maps = [#map2, #map1], iterator_types = ["parallel", "parallel", "parallel", "parallel"]} ins(%12 : tensor<1x32x160x160xf32>) outs(%10 : tensor<1x32x160x160xf32>) {
    ^bb0(%in: f32, %out: f32):
      %321 = arith.negf %in : f32
      %322 = math.exp %321 : f32
      %323 = arith.addf %322, %cst_125 : f32
      %324 = arith.divf %cst_125, %323 : f32
      linalg.yield %324 : f32
    } -> tensor<1x32x160x160xf32>
    %14 = linalg.generic {indexing_maps = [#map2, #map2, #map1], iterator_types = ["parallel", "parallel", "parallel", "parallel"]} ins(%13, %12 : tensor<1x32x160x160xf32>, tensor<1x32x160x160xf32>) outs(%10 : tensor<1x32x160x160xf32>) {
    ^bb0(%in: f32, %in_204: f32, %out: f32):
      %321 = arith.mulf %in, %in_204 : f32
      linalg.yield %321 : f32
    } -> tensor<1x32x160x160xf32>
    %15 = linalg.generic {indexing_maps = [#map, #map1], iterator_types = ["parallel", "parallel", "parallel", "parallel"]} ins(%cst_113 : tensor<32xf32>) outs(%10 : tensor<1x32x160x160xf32>) {
    ^bb0(%in: f32, %out: f32):
      linalg.yield %in : f32
    } -> tensor<1x32x160x160xf32>
    %16 = linalg.conv_2d_nchw_fchw {dilations = dense<1> : vector<2xi64>, strides = dense<1> : vector<2xi64>} ins(%14, %cst_114 : tensor<1x32x160x160xf32>, tensor<32x32x1x1xf32>) outs(%15 : tensor<1x32x160x160xf32>) -> tensor<1x32x160x160xf32>
    %17 = linalg.generic {indexing_maps = [#map2, #map1], iterator_types = ["parallel", "parallel", "parallel", "parallel"]} ins(%16 : tensor<1x32x160x160xf32>) outs(%10 : tensor<1x32x160x160xf32>) {
    ^bb0(%in: f32, %out: f32):
      %321 = arith.negf %in : f32
      %322 = math.exp %321 : f32
      %323 = arith.addf %322, %cst_125 : f32
      %324 = arith.divf %cst_125, %323 : f32
      linalg.yield %324 : f32
    } -> tensor<1x32x160x160xf32>
    %18 = linalg.generic {indexing_maps = [#map2, #map2, #map1], iterator_types = ["parallel", "parallel", "parallel", "parallel"]} ins(%17, %16 : tensor<1x32x160x160xf32>, tensor<1x32x160x160xf32>) outs(%10 : tensor<1x32x160x160xf32>) {
    ^bb0(%in: f32, %in_204: f32, %out: f32):
      %321 = arith.mulf %in, %in_204 : f32
      linalg.yield %321 : f32
    } -> tensor<1x32x160x160xf32>
    %padded_127 = tensor.pad %18 low[0, 0, 1, 1] high[0, 0, 1, 1] {
    ^bb0(%arg1: index, %arg2: index, %arg3: index, %arg4: index):
      tensor.yield %cst_124 : f32
    } : tensor<1x32x160x160xf32> to tensor<1x32x162x162xf32>
    %19 = linalg.generic {indexing_maps = [#map, #map1], iterator_types = ["parallel", "parallel", "parallel", "parallel"]} ins(%cst_111 : tensor<32xf32>) outs(%10 : tensor<1x32x160x160xf32>) {
    ^bb0(%in: f32, %out: f32):
      linalg.yield %in : f32
    } -> tensor<1x32x160x160xf32>
    %20 = linalg.conv_2d_nchw_fchw {dilations = dense<1> : vector<2xi64>, strides = dense<1> : vector<2xi64>} ins(%padded_127, %cst_112 : tensor<1x32x162x162xf32>, tensor<32x32x3x3xf32>) outs(%19 : tensor<1x32x160x160xf32>) -> tensor<1x32x160x160xf32>
    %21 = linalg.generic {indexing_maps = [#map2, #map1], iterator_types = ["parallel", "parallel", "parallel", "parallel"]} ins(%20 : tensor<1x32x160x160xf32>) outs(%10 : tensor<1x32x160x160xf32>) {
    ^bb0(%in: f32, %out: f32):
      %321 = arith.negf %in : f32
      %322 = math.exp %321 : f32
      %323 = arith.addf %322, %cst_125 : f32
      %324 = arith.divf %cst_125, %323 : f32
      linalg.yield %324 : f32
    } -> tensor<1x32x160x160xf32>
    %22 = linalg.generic {indexing_maps = [#map2, #map2, #map1], iterator_types = ["parallel", "parallel", "parallel", "parallel"]} ins(%21, %20 : tensor<1x32x160x160xf32>, tensor<1x32x160x160xf32>) outs(%10 : tensor<1x32x160x160xf32>) {
    ^bb0(%in: f32, %in_204: f32, %out: f32):
      %321 = arith.mulf %in, %in_204 : f32
      linalg.yield %321 : f32
    } -> tensor<1x32x160x160xf32>
    %23 = linalg.generic {indexing_maps = [#map2, #map2, #map1], iterator_types = ["parallel", "parallel", "parallel", "parallel"]} ins(%14, %22 : tensor<1x32x160x160xf32>, tensor<1x32x160x160xf32>) outs(%10 : tensor<1x32x160x160xf32>) {
    ^bb0(%in: f32, %in_204: f32, %out: f32):
      %321 = arith.addf %in, %in_204 : f32
      linalg.yield %321 : f32
    } -> tensor<1x32x160x160xf32>
    %24 = linalg.generic {indexing_maps = [#map, #map1], iterator_types = ["parallel", "parallel", "parallel", "parallel"]} ins(%cst_109 : tensor<32xf32>) outs(%10 : tensor<1x32x160x160xf32>) {
    ^bb0(%in: f32, %out: f32):
      linalg.yield %in : f32
    } -> tensor<1x32x160x160xf32>
    %25 = linalg.conv_2d_nchw_fchw {dilations = dense<1> : vector<2xi64>, strides = dense<1> : vector<2xi64>} ins(%9, %cst_110 : tensor<1x64x160x160xf32>, tensor<32x64x1x1xf32>) outs(%24 : tensor<1x32x160x160xf32>) -> tensor<1x32x160x160xf32>
    %26 = linalg.generic {indexing_maps = [#map2, #map1], iterator_types = ["parallel", "parallel", "parallel", "parallel"]} ins(%25 : tensor<1x32x160x160xf32>) outs(%10 : tensor<1x32x160x160xf32>) {
    ^bb0(%in: f32, %out: f32):
      %321 = arith.negf %in : f32
      %322 = math.exp %321 : f32
      %323 = arith.addf %322, %cst_125 : f32
      %324 = arith.divf %cst_125, %323 : f32
      linalg.yield %324 : f32
    } -> tensor<1x32x160x160xf32>
    %27 = linalg.generic {indexing_maps = [#map2, #map2, #map1], iterator_types = ["parallel", "parallel", "parallel", "parallel"]} ins(%26, %25 : tensor<1x32x160x160xf32>, tensor<1x32x160x160xf32>) outs(%10 : tensor<1x32x160x160xf32>) {
    ^bb0(%in: f32, %in_204: f32, %out: f32):
      %321 = arith.mulf %in, %in_204 : f32
      linalg.yield %321 : f32
    } -> tensor<1x32x160x160xf32>
    %concat = tensor.concat dim(1) %23, %27 : (tensor<1x32x160x160xf32>, tensor<1x32x160x160xf32>) -> tensor<1x64x160x160xf32>
    %28 = linalg.generic {indexing_maps = [#map, #map1], iterator_types = ["parallel", "parallel", "parallel", "parallel"]} ins(%cst_107 : tensor<64xf32>) outs(%5 : tensor<1x64x160x160xf32>) {
    ^bb0(%in: f32, %out: f32):
      linalg.yield %in : f32
    } -> tensor<1x64x160x160xf32>
    %29 = linalg.conv_2d_nchw_fchw {dilations = dense<1> : vector<2xi64>, strides = dense<1> : vector<2xi64>} ins(%concat, %cst_108 : tensor<1x64x160x160xf32>, tensor<64x64x1x1xf32>) outs(%28 : tensor<1x64x160x160xf32>) -> tensor<1x64x160x160xf32>
    %30 = linalg.generic {indexing_maps = [#map2, #map1], iterator_types = ["parallel", "parallel", "parallel", "parallel"]} ins(%29 : tensor<1x64x160x160xf32>) outs(%5 : tensor<1x64x160x160xf32>) {
    ^bb0(%in: f32, %out: f32):
      %321 = arith.negf %in : f32
      %322 = math.exp %321 : f32
      %323 = arith.addf %322, %cst_125 : f32
      %324 = arith.divf %cst_125, %323 : f32
      linalg.yield %324 : f32
    } -> tensor<1x64x160x160xf32>
    %31 = linalg.generic {indexing_maps = [#map2, #map2, #map1], iterator_types = ["parallel", "parallel", "parallel", "parallel"]} ins(%30, %29 : tensor<1x64x160x160xf32>, tensor<1x64x160x160xf32>) outs(%5 : tensor<1x64x160x160xf32>) {
    ^bb0(%in: f32, %in_204: f32, %out: f32):
      %321 = arith.mulf %in, %in_204 : f32
      linalg.yield %321 : f32
    } -> tensor<1x64x160x160xf32>
    %padded_128 = tensor.pad %31 low[0, 0, 1, 1] high[0, 0, 1, 1] {
    ^bb0(%arg1: index, %arg2: index, %arg3: index, %arg4: index):
      tensor.yield %cst_124 : f32
    } : tensor<1x64x160x160xf32> to tensor<1x64x162x162xf32>
    %32 = tensor.empty() : tensor<1x128x80x80xf32>
    %33 = linalg.generic {indexing_maps = [#map, #map1], iterator_types = ["parallel", "parallel", "parallel", "parallel"]} ins(%cst_105 : tensor<128xf32>) outs(%32 : tensor<1x128x80x80xf32>) {
    ^bb0(%in: f32, %out: f32):
      linalg.yield %in : f32
    } -> tensor<1x128x80x80xf32>
    %34 = linalg.conv_2d_nchw_fchw {dilations = dense<1> : vector<2xi64>, strides = dense<2> : vector<2xi64>} ins(%padded_128, %cst_106 : tensor<1x64x162x162xf32>, tensor<128x64x3x3xf32>) outs(%33 : tensor<1x128x80x80xf32>) -> tensor<1x128x80x80xf32>
    %35 = linalg.generic {indexing_maps = [#map2, #map1], iterator_types = ["parallel", "parallel", "parallel", "parallel"]} ins(%34 : tensor<1x128x80x80xf32>) outs(%32 : tensor<1x128x80x80xf32>) {
    ^bb0(%in: f32, %out: f32):
      %321 = arith.negf %in : f32
      %322 = math.exp %321 : f32
      %323 = arith.addf %322, %cst_125 : f32
      %324 = arith.divf %cst_125, %323 : f32
      linalg.yield %324 : f32
    } -> tensor<1x128x80x80xf32>
    %36 = linalg.generic {indexing_maps = [#map2, #map2, #map1], iterator_types = ["parallel", "parallel", "parallel", "parallel"]} ins(%35, %34 : tensor<1x128x80x80xf32>, tensor<1x128x80x80xf32>) outs(%32 : tensor<1x128x80x80xf32>) {
    ^bb0(%in: f32, %in_204: f32, %out: f32):
      %321 = arith.mulf %in, %in_204 : f32
      linalg.yield %321 : f32
    } -> tensor<1x128x80x80xf32>
    %37 = tensor.empty() : tensor<1x64x80x80xf32>
    %38 = linalg.generic {indexing_maps = [#map, #map1], iterator_types = ["parallel", "parallel", "parallel", "parallel"]} ins(%cst_103 : tensor<64xf32>) outs(%37 : tensor<1x64x80x80xf32>) {
    ^bb0(%in: f32, %out: f32):
      linalg.yield %in : f32
    } -> tensor<1x64x80x80xf32>
    %39 = linalg.conv_2d_nchw_fchw {dilations = dense<1> : vector<2xi64>, strides = dense<1> : vector<2xi64>} ins(%36, %cst_104 : tensor<1x128x80x80xf32>, tensor<64x128x1x1xf32>) outs(%38 : tensor<1x64x80x80xf32>) -> tensor<1x64x80x80xf32>
    %40 = linalg.generic {indexing_maps = [#map2, #map1], iterator_types = ["parallel", "parallel", "parallel", "parallel"]} ins(%39 : tensor<1x64x80x80xf32>) outs(%37 : tensor<1x64x80x80xf32>) {
    ^bb0(%in: f32, %out: f32):
      %321 = arith.negf %in : f32
      %322 = math.exp %321 : f32
      %323 = arith.addf %322, %cst_125 : f32
      %324 = arith.divf %cst_125, %323 : f32
      linalg.yield %324 : f32
    } -> tensor<1x64x80x80xf32>
    %41 = linalg.generic {indexing_maps = [#map2, #map2, #map1], iterator_types = ["parallel", "parallel", "parallel", "parallel"]} ins(%40, %39 : tensor<1x64x80x80xf32>, tensor<1x64x80x80xf32>) outs(%37 : tensor<1x64x80x80xf32>) {
    ^bb0(%in: f32, %in_204: f32, %out: f32):
      %321 = arith.mulf %in, %in_204 : f32
      linalg.yield %321 : f32
    } -> tensor<1x64x80x80xf32>
    %42 = linalg.generic {indexing_maps = [#map, #map1], iterator_types = ["parallel", "parallel", "parallel", "parallel"]} ins(%cst_101 : tensor<64xf32>) outs(%37 : tensor<1x64x80x80xf32>) {
    ^bb0(%in: f32, %out: f32):
      linalg.yield %in : f32
    } -> tensor<1x64x80x80xf32>
    %43 = linalg.conv_2d_nchw_fchw {dilations = dense<1> : vector<2xi64>, strides = dense<1> : vector<2xi64>} ins(%41, %cst_102 : tensor<1x64x80x80xf32>, tensor<64x64x1x1xf32>) outs(%42 : tensor<1x64x80x80xf32>) -> tensor<1x64x80x80xf32>
    %44 = linalg.generic {indexing_maps = [#map2, #map1], iterator_types = ["parallel", "parallel", "parallel", "parallel"]} ins(%43 : tensor<1x64x80x80xf32>) outs(%37 : tensor<1x64x80x80xf32>) {
    ^bb0(%in: f32, %out: f32):
      %321 = arith.negf %in : f32
      %322 = math.exp %321 : f32
      %323 = arith.addf %322, %cst_125 : f32
      %324 = arith.divf %cst_125, %323 : f32
      linalg.yield %324 : f32
    } -> tensor<1x64x80x80xf32>
    %45 = linalg.generic {indexing_maps = [#map2, #map2, #map1], iterator_types = ["parallel", "parallel", "parallel", "parallel"]} ins(%44, %43 : tensor<1x64x80x80xf32>, tensor<1x64x80x80xf32>) outs(%37 : tensor<1x64x80x80xf32>) {
    ^bb0(%in: f32, %in_204: f32, %out: f32):
      %321 = arith.mulf %in, %in_204 : f32
      linalg.yield %321 : f32
    } -> tensor<1x64x80x80xf32>
    %padded_129 = tensor.pad %45 low[0, 0, 1, 1] high[0, 0, 1, 1] {
    ^bb0(%arg1: index, %arg2: index, %arg3: index, %arg4: index):
      tensor.yield %cst_124 : f32
    } : tensor<1x64x80x80xf32> to tensor<1x64x82x82xf32>
    %46 = linalg.generic {indexing_maps = [#map, #map1], iterator_types = ["parallel", "parallel", "parallel", "parallel"]} ins(%cst_99 : tensor<64xf32>) outs(%37 : tensor<1x64x80x80xf32>) {
    ^bb0(%in: f32, %out: f32):
      linalg.yield %in : f32
    } -> tensor<1x64x80x80xf32>
    %47 = linalg.conv_2d_nchw_fchw {dilations = dense<1> : vector<2xi64>, strides = dense<1> : vector<2xi64>} ins(%padded_129, %cst_100 : tensor<1x64x82x82xf32>, tensor<64x64x3x3xf32>) outs(%46 : tensor<1x64x80x80xf32>) -> tensor<1x64x80x80xf32>
    %48 = linalg.generic {indexing_maps = [#map2, #map1], iterator_types = ["parallel", "parallel", "parallel", "parallel"]} ins(%47 : tensor<1x64x80x80xf32>) outs(%37 : tensor<1x64x80x80xf32>) {
    ^bb0(%in: f32, %out: f32):
      %321 = arith.negf %in : f32
      %322 = math.exp %321 : f32
      %323 = arith.addf %322, %cst_125 : f32
      %324 = arith.divf %cst_125, %323 : f32
      linalg.yield %324 : f32
    } -> tensor<1x64x80x80xf32>
    %49 = linalg.generic {indexing_maps = [#map2, #map2, #map1], iterator_types = ["parallel", "parallel", "parallel", "parallel"]} ins(%48, %47 : tensor<1x64x80x80xf32>, tensor<1x64x80x80xf32>) outs(%37 : tensor<1x64x80x80xf32>) {
    ^bb0(%in: f32, %in_204: f32, %out: f32):
      %321 = arith.mulf %in, %in_204 : f32
      linalg.yield %321 : f32
    } -> tensor<1x64x80x80xf32>
    %50 = linalg.generic {indexing_maps = [#map2, #map2, #map1], iterator_types = ["parallel", "parallel", "parallel", "parallel"]} ins(%41, %49 : tensor<1x64x80x80xf32>, tensor<1x64x80x80xf32>) outs(%37 : tensor<1x64x80x80xf32>) {
    ^bb0(%in: f32, %in_204: f32, %out: f32):
      %321 = arith.addf %in, %in_204 : f32
      linalg.yield %321 : f32
    } -> tensor<1x64x80x80xf32>
    %51 = linalg.generic {indexing_maps = [#map, #map1], iterator_types = ["parallel", "parallel", "parallel", "parallel"]} ins(%cst_97 : tensor<64xf32>) outs(%37 : tensor<1x64x80x80xf32>) {
    ^bb0(%in: f32, %out: f32):
      linalg.yield %in : f32
    } -> tensor<1x64x80x80xf32>
    %52 = linalg.conv_2d_nchw_fchw {dilations = dense<1> : vector<2xi64>, strides = dense<1> : vector<2xi64>} ins(%50, %cst_98 : tensor<1x64x80x80xf32>, tensor<64x64x1x1xf32>) outs(%51 : tensor<1x64x80x80xf32>) -> tensor<1x64x80x80xf32>
    %53 = linalg.generic {indexing_maps = [#map2, #map1], iterator_types = ["parallel", "parallel", "parallel", "parallel"]} ins(%52 : tensor<1x64x80x80xf32>) outs(%37 : tensor<1x64x80x80xf32>) {
    ^bb0(%in: f32, %out: f32):
      %321 = arith.negf %in : f32
      %322 = math.exp %321 : f32
      %323 = arith.addf %322, %cst_125 : f32
      %324 = arith.divf %cst_125, %323 : f32
      linalg.yield %324 : f32
    } -> tensor<1x64x80x80xf32>
    %54 = linalg.generic {indexing_maps = [#map2, #map2, #map1], iterator_types = ["parallel", "parallel", "parallel", "parallel"]} ins(%53, %52 : tensor<1x64x80x80xf32>, tensor<1x64x80x80xf32>) outs(%37 : tensor<1x64x80x80xf32>) {
    ^bb0(%in: f32, %in_204: f32, %out: f32):
      %321 = arith.mulf %in, %in_204 : f32
      linalg.yield %321 : f32
    } -> tensor<1x64x80x80xf32>
    %padded_130 = tensor.pad %54 low[0, 0, 1, 1] high[0, 0, 1, 1] {
    ^bb0(%arg1: index, %arg2: index, %arg3: index, %arg4: index):
      tensor.yield %cst_124 : f32
    } : tensor<1x64x80x80xf32> to tensor<1x64x82x82xf32>
    %55 = linalg.generic {indexing_maps = [#map, #map1], iterator_types = ["parallel", "parallel", "parallel", "parallel"]} ins(%cst_95 : tensor<64xf32>) outs(%37 : tensor<1x64x80x80xf32>) {
    ^bb0(%in: f32, %out: f32):
      linalg.yield %in : f32
    } -> tensor<1x64x80x80xf32>
    %56 = linalg.conv_2d_nchw_fchw {dilations = dense<1> : vector<2xi64>, strides = dense<1> : vector<2xi64>} ins(%padded_130, %cst_96 : tensor<1x64x82x82xf32>, tensor<64x64x3x3xf32>) outs(%55 : tensor<1x64x80x80xf32>) -> tensor<1x64x80x80xf32>
    %57 = linalg.generic {indexing_maps = [#map2, #map1], iterator_types = ["parallel", "parallel", "parallel", "parallel"]} ins(%56 : tensor<1x64x80x80xf32>) outs(%37 : tensor<1x64x80x80xf32>) {
    ^bb0(%in: f32, %out: f32):
      %321 = arith.negf %in : f32
      %322 = math.exp %321 : f32
      %323 = arith.addf %322, %cst_125 : f32
      %324 = arith.divf %cst_125, %323 : f32
      linalg.yield %324 : f32
    } -> tensor<1x64x80x80xf32>
    %58 = linalg.generic {indexing_maps = [#map2, #map2, #map1], iterator_types = ["parallel", "parallel", "parallel", "parallel"]} ins(%57, %56 : tensor<1x64x80x80xf32>, tensor<1x64x80x80xf32>) outs(%37 : tensor<1x64x80x80xf32>) {
    ^bb0(%in: f32, %in_204: f32, %out: f32):
      %321 = arith.mulf %in, %in_204 : f32
      linalg.yield %321 : f32
    } -> tensor<1x64x80x80xf32>
    %59 = linalg.generic {indexing_maps = [#map2, #map2, #map1], iterator_types = ["parallel", "parallel", "parallel", "parallel"]} ins(%50, %58 : tensor<1x64x80x80xf32>, tensor<1x64x80x80xf32>) outs(%37 : tensor<1x64x80x80xf32>) {
    ^bb0(%in: f32, %in_204: f32, %out: f32):
      %321 = arith.addf %in, %in_204 : f32
      linalg.yield %321 : f32
    } -> tensor<1x64x80x80xf32>
    %60 = linalg.generic {indexing_maps = [#map, #map1], iterator_types = ["parallel", "parallel", "parallel", "parallel"]} ins(%cst_93 : tensor<64xf32>) outs(%37 : tensor<1x64x80x80xf32>) {
    ^bb0(%in: f32, %out: f32):
      linalg.yield %in : f32
    } -> tensor<1x64x80x80xf32>
    %61 = linalg.conv_2d_nchw_fchw {dilations = dense<1> : vector<2xi64>, strides = dense<1> : vector<2xi64>} ins(%36, %cst_94 : tensor<1x128x80x80xf32>, tensor<64x128x1x1xf32>) outs(%60 : tensor<1x64x80x80xf32>) -> tensor<1x64x80x80xf32>
    %62 = linalg.generic {indexing_maps = [#map2, #map1], iterator_types = ["parallel", "parallel", "parallel", "parallel"]} ins(%61 : tensor<1x64x80x80xf32>) outs(%37 : tensor<1x64x80x80xf32>) {
    ^bb0(%in: f32, %out: f32):
      %321 = arith.negf %in : f32
      %322 = math.exp %321 : f32
      %323 = arith.addf %322, %cst_125 : f32
      %324 = arith.divf %cst_125, %323 : f32
      linalg.yield %324 : f32
    } -> tensor<1x64x80x80xf32>
    %63 = linalg.generic {indexing_maps = [#map2, #map2, #map1], iterator_types = ["parallel", "parallel", "parallel", "parallel"]} ins(%62, %61 : tensor<1x64x80x80xf32>, tensor<1x64x80x80xf32>) outs(%37 : tensor<1x64x80x80xf32>) {
    ^bb0(%in: f32, %in_204: f32, %out: f32):
      %321 = arith.mulf %in, %in_204 : f32
      linalg.yield %321 : f32
    } -> tensor<1x64x80x80xf32>
    %concat_131 = tensor.concat dim(1) %59, %63 : (tensor<1x64x80x80xf32>, tensor<1x64x80x80xf32>) -> tensor<1x128x80x80xf32>
    %64 = linalg.generic {indexing_maps = [#map, #map1], iterator_types = ["parallel", "parallel", "parallel", "parallel"]} ins(%cst_91 : tensor<128xf32>) outs(%32 : tensor<1x128x80x80xf32>) {
    ^bb0(%in: f32, %out: f32):
      linalg.yield %in : f32
    } -> tensor<1x128x80x80xf32>
    %65 = linalg.conv_2d_nchw_fchw {dilations = dense<1> : vector<2xi64>, strides = dense<1> : vector<2xi64>} ins(%concat_131, %cst_92 : tensor<1x128x80x80xf32>, tensor<128x128x1x1xf32>) outs(%64 : tensor<1x128x80x80xf32>) -> tensor<1x128x80x80xf32>
    %66 = linalg.generic {indexing_maps = [#map2, #map1], iterator_types = ["parallel", "parallel", "parallel", "parallel"]} ins(%65 : tensor<1x128x80x80xf32>) outs(%32 : tensor<1x128x80x80xf32>) {
    ^bb0(%in: f32, %out: f32):
      %321 = arith.negf %in : f32
      %322 = math.exp %321 : f32
      %323 = arith.addf %322, %cst_125 : f32
      %324 = arith.divf %cst_125, %323 : f32
      linalg.yield %324 : f32
    } -> tensor<1x128x80x80xf32>
    %67 = linalg.generic {indexing_maps = [#map2, #map2, #map1], iterator_types = ["parallel", "parallel", "parallel", "parallel"]} ins(%66, %65 : tensor<1x128x80x80xf32>, tensor<1x128x80x80xf32>) outs(%32 : tensor<1x128x80x80xf32>) {
    ^bb0(%in: f32, %in_204: f32, %out: f32):
      %321 = arith.mulf %in, %in_204 : f32
      linalg.yield %321 : f32
    } -> tensor<1x128x80x80xf32>
    %padded_132 = tensor.pad %67 low[0, 0, 1, 1] high[0, 0, 1, 1] {
    ^bb0(%arg1: index, %arg2: index, %arg3: index, %arg4: index):
      tensor.yield %cst_124 : f32
    } : tensor<1x128x80x80xf32> to tensor<1x128x82x82xf32>
    %68 = tensor.empty() : tensor<1x256x40x40xf32>
    %69 = linalg.generic {indexing_maps = [#map, #map1], iterator_types = ["parallel", "parallel", "parallel", "parallel"]} ins(%cst_89 : tensor<256xf32>) outs(%68 : tensor<1x256x40x40xf32>) {
    ^bb0(%in: f32, %out: f32):
      linalg.yield %in : f32
    } -> tensor<1x256x40x40xf32>
    %70 = linalg.conv_2d_nchw_fchw {dilations = dense<1> : vector<2xi64>, strides = dense<2> : vector<2xi64>} ins(%padded_132, %cst_90 : tensor<1x128x82x82xf32>, tensor<256x128x3x3xf32>) outs(%69 : tensor<1x256x40x40xf32>) -> tensor<1x256x40x40xf32>
    %71 = linalg.generic {indexing_maps = [#map2, #map1], iterator_types = ["parallel", "parallel", "parallel", "parallel"]} ins(%70 : tensor<1x256x40x40xf32>) outs(%68 : tensor<1x256x40x40xf32>) {
    ^bb0(%in: f32, %out: f32):
      %321 = arith.negf %in : f32
      %322 = math.exp %321 : f32
      %323 = arith.addf %322, %cst_125 : f32
      %324 = arith.divf %cst_125, %323 : f32
      linalg.yield %324 : f32
    } -> tensor<1x256x40x40xf32>
    %72 = linalg.generic {indexing_maps = [#map2, #map2, #map1], iterator_types = ["parallel", "parallel", "parallel", "parallel"]} ins(%71, %70 : tensor<1x256x40x40xf32>, tensor<1x256x40x40xf32>) outs(%68 : tensor<1x256x40x40xf32>) {
    ^bb0(%in: f32, %in_204: f32, %out: f32):
      %321 = arith.mulf %in, %in_204 : f32
      linalg.yield %321 : f32
    } -> tensor<1x256x40x40xf32>
    %73 = tensor.empty() : tensor<1x128x40x40xf32>
    %74 = linalg.generic {indexing_maps = [#map, #map1], iterator_types = ["parallel", "parallel", "parallel", "parallel"]} ins(%cst_87 : tensor<128xf32>) outs(%73 : tensor<1x128x40x40xf32>) {
    ^bb0(%in: f32, %out: f32):
      linalg.yield %in : f32
    } -> tensor<1x128x40x40xf32>
    %75 = linalg.conv_2d_nchw_fchw {dilations = dense<1> : vector<2xi64>, strides = dense<1> : vector<2xi64>} ins(%72, %cst_88 : tensor<1x256x40x40xf32>, tensor<128x256x1x1xf32>) outs(%74 : tensor<1x128x40x40xf32>) -> tensor<1x128x40x40xf32>
    %76 = linalg.generic {indexing_maps = [#map2, #map1], iterator_types = ["parallel", "parallel", "parallel", "parallel"]} ins(%75 : tensor<1x128x40x40xf32>) outs(%73 : tensor<1x128x40x40xf32>) {
    ^bb0(%in: f32, %out: f32):
      %321 = arith.negf %in : f32
      %322 = math.exp %321 : f32
      %323 = arith.addf %322, %cst_125 : f32
      %324 = arith.divf %cst_125, %323 : f32
      linalg.yield %324 : f32
    } -> tensor<1x128x40x40xf32>
    %77 = linalg.generic {indexing_maps = [#map2, #map2, #map1], iterator_types = ["parallel", "parallel", "parallel", "parallel"]} ins(%76, %75 : tensor<1x128x40x40xf32>, tensor<1x128x40x40xf32>) outs(%73 : tensor<1x128x40x40xf32>) {
    ^bb0(%in: f32, %in_204: f32, %out: f32):
      %321 = arith.mulf %in, %in_204 : f32
      linalg.yield %321 : f32
    } -> tensor<1x128x40x40xf32>
    %78 = linalg.generic {indexing_maps = [#map, #map1], iterator_types = ["parallel", "parallel", "parallel", "parallel"]} ins(%cst_85 : tensor<128xf32>) outs(%73 : tensor<1x128x40x40xf32>) {
    ^bb0(%in: f32, %out: f32):
      linalg.yield %in : f32
    } -> tensor<1x128x40x40xf32>
    %79 = linalg.conv_2d_nchw_fchw {dilations = dense<1> : vector<2xi64>, strides = dense<1> : vector<2xi64>} ins(%77, %cst_86 : tensor<1x128x40x40xf32>, tensor<128x128x1x1xf32>) outs(%78 : tensor<1x128x40x40xf32>) -> tensor<1x128x40x40xf32>
    %80 = linalg.generic {indexing_maps = [#map2, #map1], iterator_types = ["parallel", "parallel", "parallel", "parallel"]} ins(%79 : tensor<1x128x40x40xf32>) outs(%73 : tensor<1x128x40x40xf32>) {
    ^bb0(%in: f32, %out: f32):
      %321 = arith.negf %in : f32
      %322 = math.exp %321 : f32
      %323 = arith.addf %322, %cst_125 : f32
      %324 = arith.divf %cst_125, %323 : f32
      linalg.yield %324 : f32
    } -> tensor<1x128x40x40xf32>
    %81 = linalg.generic {indexing_maps = [#map2, #map2, #map1], iterator_types = ["parallel", "parallel", "parallel", "parallel"]} ins(%80, %79 : tensor<1x128x40x40xf32>, tensor<1x128x40x40xf32>) outs(%73 : tensor<1x128x40x40xf32>) {
    ^bb0(%in: f32, %in_204: f32, %out: f32):
      %321 = arith.mulf %in, %in_204 : f32
      linalg.yield %321 : f32
    } -> tensor<1x128x40x40xf32>
    %padded_133 = tensor.pad %81 low[0, 0, 1, 1] high[0, 0, 1, 1] {
    ^bb0(%arg1: index, %arg2: index, %arg3: index, %arg4: index):
      tensor.yield %cst_124 : f32
    } : tensor<1x128x40x40xf32> to tensor<1x128x42x42xf32>
    %82 = linalg.generic {indexing_maps = [#map, #map1], iterator_types = ["parallel", "parallel", "parallel", "parallel"]} ins(%cst_83 : tensor<128xf32>) outs(%73 : tensor<1x128x40x40xf32>) {
    ^bb0(%in: f32, %out: f32):
      linalg.yield %in : f32
    } -> tensor<1x128x40x40xf32>
    %83 = linalg.conv_2d_nchw_fchw {dilations = dense<1> : vector<2xi64>, strides = dense<1> : vector<2xi64>} ins(%padded_133, %cst_84 : tensor<1x128x42x42xf32>, tensor<128x128x3x3xf32>) outs(%82 : tensor<1x128x40x40xf32>) -> tensor<1x128x40x40xf32>
    %84 = linalg.generic {indexing_maps = [#map2, #map1], iterator_types = ["parallel", "parallel", "parallel", "parallel"]} ins(%83 : tensor<1x128x40x40xf32>) outs(%73 : tensor<1x128x40x40xf32>) {
    ^bb0(%in: f32, %out: f32):
      %321 = arith.negf %in : f32
      %322 = math.exp %321 : f32
      %323 = arith.addf %322, %cst_125 : f32
      %324 = arith.divf %cst_125, %323 : f32
      linalg.yield %324 : f32
    } -> tensor<1x128x40x40xf32>
    %85 = linalg.generic {indexing_maps = [#map2, #map2, #map1], iterator_types = ["parallel", "parallel", "parallel", "parallel"]} ins(%84, %83 : tensor<1x128x40x40xf32>, tensor<1x128x40x40xf32>) outs(%73 : tensor<1x128x40x40xf32>) {
    ^bb0(%in: f32, %in_204: f32, %out: f32):
      %321 = arith.mulf %in, %in_204 : f32
      linalg.yield %321 : f32
    } -> tensor<1x128x40x40xf32>
    %86 = linalg.generic {indexing_maps = [#map2, #map2, #map1], iterator_types = ["parallel", "parallel", "parallel", "parallel"]} ins(%77, %85 : tensor<1x128x40x40xf32>, tensor<1x128x40x40xf32>) outs(%73 : tensor<1x128x40x40xf32>) {
    ^bb0(%in: f32, %in_204: f32, %out: f32):
      %321 = arith.addf %in, %in_204 : f32
      linalg.yield %321 : f32
    } -> tensor<1x128x40x40xf32>
    %87 = linalg.generic {indexing_maps = [#map, #map1], iterator_types = ["parallel", "parallel", "parallel", "parallel"]} ins(%cst_81 : tensor<128xf32>) outs(%73 : tensor<1x128x40x40xf32>) {
    ^bb0(%in: f32, %out: f32):
      linalg.yield %in : f32
    } -> tensor<1x128x40x40xf32>
    %88 = linalg.conv_2d_nchw_fchw {dilations = dense<1> : vector<2xi64>, strides = dense<1> : vector<2xi64>} ins(%86, %cst_82 : tensor<1x128x40x40xf32>, tensor<128x128x1x1xf32>) outs(%87 : tensor<1x128x40x40xf32>) -> tensor<1x128x40x40xf32>
    %89 = linalg.generic {indexing_maps = [#map2, #map1], iterator_types = ["parallel", "parallel", "parallel", "parallel"]} ins(%88 : tensor<1x128x40x40xf32>) outs(%73 : tensor<1x128x40x40xf32>) {
    ^bb0(%in: f32, %out: f32):
      %321 = arith.negf %in : f32
      %322 = math.exp %321 : f32
      %323 = arith.addf %322, %cst_125 : f32
      %324 = arith.divf %cst_125, %323 : f32
      linalg.yield %324 : f32
    } -> tensor<1x128x40x40xf32>
    %90 = linalg.generic {indexing_maps = [#map2, #map2, #map1], iterator_types = ["parallel", "parallel", "parallel", "parallel"]} ins(%89, %88 : tensor<1x128x40x40xf32>, tensor<1x128x40x40xf32>) outs(%73 : tensor<1x128x40x40xf32>) {
    ^bb0(%in: f32, %in_204: f32, %out: f32):
      %321 = arith.mulf %in, %in_204 : f32
      linalg.yield %321 : f32
    } -> tensor<1x128x40x40xf32>
    %padded_134 = tensor.pad %90 low[0, 0, 1, 1] high[0, 0, 1, 1] {
    ^bb0(%arg1: index, %arg2: index, %arg3: index, %arg4: index):
      tensor.yield %cst_124 : f32
    } : tensor<1x128x40x40xf32> to tensor<1x128x42x42xf32>
    %91 = linalg.generic {indexing_maps = [#map, #map1], iterator_types = ["parallel", "parallel", "parallel", "parallel"]} ins(%cst_79 : tensor<128xf32>) outs(%73 : tensor<1x128x40x40xf32>) {
    ^bb0(%in: f32, %out: f32):
      linalg.yield %in : f32
    } -> tensor<1x128x40x40xf32>
    %92 = linalg.conv_2d_nchw_fchw {dilations = dense<1> : vector<2xi64>, strides = dense<1> : vector<2xi64>} ins(%padded_134, %cst_80 : tensor<1x128x42x42xf32>, tensor<128x128x3x3xf32>) outs(%91 : tensor<1x128x40x40xf32>) -> tensor<1x128x40x40xf32>
    %93 = linalg.generic {indexing_maps = [#map2, #map1], iterator_types = ["parallel", "parallel", "parallel", "parallel"]} ins(%92 : tensor<1x128x40x40xf32>) outs(%73 : tensor<1x128x40x40xf32>) {
    ^bb0(%in: f32, %out: f32):
      %321 = arith.negf %in : f32
      %322 = math.exp %321 : f32
      %323 = arith.addf %322, %cst_125 : f32
      %324 = arith.divf %cst_125, %323 : f32
      linalg.yield %324 : f32
    } -> tensor<1x128x40x40xf32>
    %94 = linalg.generic {indexing_maps = [#map2, #map2, #map1], iterator_types = ["parallel", "parallel", "parallel", "parallel"]} ins(%93, %92 : tensor<1x128x40x40xf32>, tensor<1x128x40x40xf32>) outs(%73 : tensor<1x128x40x40xf32>) {
    ^bb0(%in: f32, %in_204: f32, %out: f32):
      %321 = arith.mulf %in, %in_204 : f32
      linalg.yield %321 : f32
    } -> tensor<1x128x40x40xf32>
    %95 = linalg.generic {indexing_maps = [#map2, #map2, #map1], iterator_types = ["parallel", "parallel", "parallel", "parallel"]} ins(%86, %94 : tensor<1x128x40x40xf32>, tensor<1x128x40x40xf32>) outs(%73 : tensor<1x128x40x40xf32>) {
    ^bb0(%in: f32, %in_204: f32, %out: f32):
      %321 = arith.addf %in, %in_204 : f32
      linalg.yield %321 : f32
    } -> tensor<1x128x40x40xf32>
    %96 = linalg.generic {indexing_maps = [#map, #map1], iterator_types = ["parallel", "parallel", "parallel", "parallel"]} ins(%cst_77 : tensor<128xf32>) outs(%73 : tensor<1x128x40x40xf32>) {
    ^bb0(%in: f32, %out: f32):
      linalg.yield %in : f32
    } -> tensor<1x128x40x40xf32>
    %97 = linalg.conv_2d_nchw_fchw {dilations = dense<1> : vector<2xi64>, strides = dense<1> : vector<2xi64>} ins(%95, %cst_78 : tensor<1x128x40x40xf32>, tensor<128x128x1x1xf32>) outs(%96 : tensor<1x128x40x40xf32>) -> tensor<1x128x40x40xf32>
    %98 = linalg.generic {indexing_maps = [#map2, #map1], iterator_types = ["parallel", "parallel", "parallel", "parallel"]} ins(%97 : tensor<1x128x40x40xf32>) outs(%73 : tensor<1x128x40x40xf32>) {
    ^bb0(%in: f32, %out: f32):
      %321 = arith.negf %in : f32
      %322 = math.exp %321 : f32
      %323 = arith.addf %322, %cst_125 : f32
      %324 = arith.divf %cst_125, %323 : f32
      linalg.yield %324 : f32
    } -> tensor<1x128x40x40xf32>
    %99 = linalg.generic {indexing_maps = [#map2, #map2, #map1], iterator_types = ["parallel", "parallel", "parallel", "parallel"]} ins(%98, %97 : tensor<1x128x40x40xf32>, tensor<1x128x40x40xf32>) outs(%73 : tensor<1x128x40x40xf32>) {
    ^bb0(%in: f32, %in_204: f32, %out: f32):
      %321 = arith.mulf %in, %in_204 : f32
      linalg.yield %321 : f32
    } -> tensor<1x128x40x40xf32>
    %padded_135 = tensor.pad %99 low[0, 0, 1, 1] high[0, 0, 1, 1] {
    ^bb0(%arg1: index, %arg2: index, %arg3: index, %arg4: index):
      tensor.yield %cst_124 : f32
    } : tensor<1x128x40x40xf32> to tensor<1x128x42x42xf32>
    %100 = linalg.generic {indexing_maps = [#map, #map1], iterator_types = ["parallel", "parallel", "parallel", "parallel"]} ins(%cst_75 : tensor<128xf32>) outs(%73 : tensor<1x128x40x40xf32>) {
    ^bb0(%in: f32, %out: f32):
      linalg.yield %in : f32
    } -> tensor<1x128x40x40xf32>
    %101 = linalg.conv_2d_nchw_fchw {dilations = dense<1> : vector<2xi64>, strides = dense<1> : vector<2xi64>} ins(%padded_135, %cst_76 : tensor<1x128x42x42xf32>, tensor<128x128x3x3xf32>) outs(%100 : tensor<1x128x40x40xf32>) -> tensor<1x128x40x40xf32>
    %102 = linalg.generic {indexing_maps = [#map2, #map1], iterator_types = ["parallel", "parallel", "parallel", "parallel"]} ins(%101 : tensor<1x128x40x40xf32>) outs(%73 : tensor<1x128x40x40xf32>) {
    ^bb0(%in: f32, %out: f32):
      %321 = arith.negf %in : f32
      %322 = math.exp %321 : f32
      %323 = arith.addf %322, %cst_125 : f32
      %324 = arith.divf %cst_125, %323 : f32
      linalg.yield %324 : f32
    } -> tensor<1x128x40x40xf32>
    %103 = linalg.generic {indexing_maps = [#map2, #map2, #map1], iterator_types = ["parallel", "parallel", "parallel", "parallel"]} ins(%102, %101 : tensor<1x128x40x40xf32>, tensor<1x128x40x40xf32>) outs(%73 : tensor<1x128x40x40xf32>) {
    ^bb0(%in: f32, %in_204: f32, %out: f32):
      %321 = arith.mulf %in, %in_204 : f32
      linalg.yield %321 : f32
    } -> tensor<1x128x40x40xf32>
    %104 = linalg.generic {indexing_maps = [#map2, #map2, #map1], iterator_types = ["parallel", "parallel", "parallel", "parallel"]} ins(%95, %103 : tensor<1x128x40x40xf32>, tensor<1x128x40x40xf32>) outs(%73 : tensor<1x128x40x40xf32>) {
    ^bb0(%in: f32, %in_204: f32, %out: f32):
      %321 = arith.addf %in, %in_204 : f32
      linalg.yield %321 : f32
    } -> tensor<1x128x40x40xf32>
    %105 = linalg.generic {indexing_maps = [#map, #map1], iterator_types = ["parallel", "parallel", "parallel", "parallel"]} ins(%cst_73 : tensor<128xf32>) outs(%73 : tensor<1x128x40x40xf32>) {
    ^bb0(%in: f32, %out: f32):
      linalg.yield %in : f32
    } -> tensor<1x128x40x40xf32>
    %106 = linalg.conv_2d_nchw_fchw {dilations = dense<1> : vector<2xi64>, strides = dense<1> : vector<2xi64>} ins(%72, %cst_74 : tensor<1x256x40x40xf32>, tensor<128x256x1x1xf32>) outs(%105 : tensor<1x128x40x40xf32>) -> tensor<1x128x40x40xf32>
    %107 = linalg.generic {indexing_maps = [#map2, #map1], iterator_types = ["parallel", "parallel", "parallel", "parallel"]} ins(%106 : tensor<1x128x40x40xf32>) outs(%73 : tensor<1x128x40x40xf32>) {
    ^bb0(%in: f32, %out: f32):
      %321 = arith.negf %in : f32
      %322 = math.exp %321 : f32
      %323 = arith.addf %322, %cst_125 : f32
      %324 = arith.divf %cst_125, %323 : f32
      linalg.yield %324 : f32
    } -> tensor<1x128x40x40xf32>
    %108 = linalg.generic {indexing_maps = [#map2, #map2, #map1], iterator_types = ["parallel", "parallel", "parallel", "parallel"]} ins(%107, %106 : tensor<1x128x40x40xf32>, tensor<1x128x40x40xf32>) outs(%73 : tensor<1x128x40x40xf32>) {
    ^bb0(%in: f32, %in_204: f32, %out: f32):
      %321 = arith.mulf %in, %in_204 : f32
      linalg.yield %321 : f32
    } -> tensor<1x128x40x40xf32>
    %concat_136 = tensor.concat dim(1) %104, %108 : (tensor<1x128x40x40xf32>, tensor<1x128x40x40xf32>) -> tensor<1x256x40x40xf32>
    %109 = linalg.generic {indexing_maps = [#map, #map1], iterator_types = ["parallel", "parallel", "parallel", "parallel"]} ins(%cst_71 : tensor<256xf32>) outs(%68 : tensor<1x256x40x40xf32>) {
    ^bb0(%in: f32, %out: f32):
      linalg.yield %in : f32
    } -> tensor<1x256x40x40xf32>
    %110 = linalg.conv_2d_nchw_fchw {dilations = dense<1> : vector<2xi64>, strides = dense<1> : vector<2xi64>} ins(%concat_136, %cst_72 : tensor<1x256x40x40xf32>, tensor<256x256x1x1xf32>) outs(%109 : tensor<1x256x40x40xf32>) -> tensor<1x256x40x40xf32>
    %111 = linalg.generic {indexing_maps = [#map2, #map1], iterator_types = ["parallel", "parallel", "parallel", "parallel"]} ins(%110 : tensor<1x256x40x40xf32>) outs(%68 : tensor<1x256x40x40xf32>) {
    ^bb0(%in: f32, %out: f32):
      %321 = arith.negf %in : f32
      %322 = math.exp %321 : f32
      %323 = arith.addf %322, %cst_125 : f32
      %324 = arith.divf %cst_125, %323 : f32
      linalg.yield %324 : f32
    } -> tensor<1x256x40x40xf32>
    %112 = linalg.generic {indexing_maps = [#map2, #map2, #map1], iterator_types = ["parallel", "parallel", "parallel", "parallel"]} ins(%111, %110 : tensor<1x256x40x40xf32>, tensor<1x256x40x40xf32>) outs(%68 : tensor<1x256x40x40xf32>) {
    ^bb0(%in: f32, %in_204: f32, %out: f32):
      %321 = arith.mulf %in, %in_204 : f32
      linalg.yield %321 : f32
    } -> tensor<1x256x40x40xf32>
    %padded_137 = tensor.pad %112 low[0, 0, 1, 1] high[0, 0, 1, 1] {
    ^bb0(%arg1: index, %arg2: index, %arg3: index, %arg4: index):
      tensor.yield %cst_124 : f32
    } : tensor<1x256x40x40xf32> to tensor<1x256x42x42xf32>
    %113 = tensor.empty() : tensor<1x512x20x20xf32>
    %114 = linalg.generic {indexing_maps = [#map, #map1], iterator_types = ["parallel", "parallel", "parallel", "parallel"]} ins(%cst_69 : tensor<512xf32>) outs(%113 : tensor<1x512x20x20xf32>) {
    ^bb0(%in: f32, %out: f32):
      linalg.yield %in : f32
    } -> tensor<1x512x20x20xf32>
    %115 = linalg.conv_2d_nchw_fchw {dilations = dense<1> : vector<2xi64>, strides = dense<2> : vector<2xi64>} ins(%padded_137, %cst_70 : tensor<1x256x42x42xf32>, tensor<512x256x3x3xf32>) outs(%114 : tensor<1x512x20x20xf32>) -> tensor<1x512x20x20xf32>
    %116 = linalg.generic {indexing_maps = [#map2, #map1], iterator_types = ["parallel", "parallel", "parallel", "parallel"]} ins(%115 : tensor<1x512x20x20xf32>) outs(%113 : tensor<1x512x20x20xf32>) {
    ^bb0(%in: f32, %out: f32):
      %321 = arith.negf %in : f32
      %322 = math.exp %321 : f32
      %323 = arith.addf %322, %cst_125 : f32
      %324 = arith.divf %cst_125, %323 : f32
      linalg.yield %324 : f32
    } -> tensor<1x512x20x20xf32>
    %117 = linalg.generic {indexing_maps = [#map2, #map2, #map1], iterator_types = ["parallel", "parallel", "parallel", "parallel"]} ins(%116, %115 : tensor<1x512x20x20xf32>, tensor<1x512x20x20xf32>) outs(%113 : tensor<1x512x20x20xf32>) {
    ^bb0(%in: f32, %in_204: f32, %out: f32):
      %321 = arith.mulf %in, %in_204 : f32
      linalg.yield %321 : f32
    } -> tensor<1x512x20x20xf32>
    %118 = tensor.empty() : tensor<1x256x20x20xf32>
    %119 = linalg.generic {indexing_maps = [#map, #map1], iterator_types = ["parallel", "parallel", "parallel", "parallel"]} ins(%cst_67 : tensor<256xf32>) outs(%118 : tensor<1x256x20x20xf32>) {
    ^bb0(%in: f32, %out: f32):
      linalg.yield %in : f32
    } -> tensor<1x256x20x20xf32>
    %120 = linalg.conv_2d_nchw_fchw {dilations = dense<1> : vector<2xi64>, strides = dense<1> : vector<2xi64>} ins(%117, %cst_68 : tensor<1x512x20x20xf32>, tensor<256x512x1x1xf32>) outs(%119 : tensor<1x256x20x20xf32>) -> tensor<1x256x20x20xf32>
    %121 = linalg.generic {indexing_maps = [#map2, #map1], iterator_types = ["parallel", "parallel", "parallel", "parallel"]} ins(%120 : tensor<1x256x20x20xf32>) outs(%118 : tensor<1x256x20x20xf32>) {
    ^bb0(%in: f32, %out: f32):
      %321 = arith.negf %in : f32
      %322 = math.exp %321 : f32
      %323 = arith.addf %322, %cst_125 : f32
      %324 = arith.divf %cst_125, %323 : f32
      linalg.yield %324 : f32
    } -> tensor<1x256x20x20xf32>
    %122 = linalg.generic {indexing_maps = [#map2, #map2, #map1], iterator_types = ["parallel", "parallel", "parallel", "parallel"]} ins(%121, %120 : tensor<1x256x20x20xf32>, tensor<1x256x20x20xf32>) outs(%118 : tensor<1x256x20x20xf32>) {
    ^bb0(%in: f32, %in_204: f32, %out: f32):
      %321 = arith.mulf %in, %in_204 : f32
      linalg.yield %321 : f32
    } -> tensor<1x256x20x20xf32>
    %123 = linalg.generic {indexing_maps = [#map, #map1], iterator_types = ["parallel", "parallel", "parallel", "parallel"]} ins(%cst_65 : tensor<256xf32>) outs(%118 : tensor<1x256x20x20xf32>) {
    ^bb0(%in: f32, %out: f32):
      linalg.yield %in : f32
    } -> tensor<1x256x20x20xf32>
    %124 = linalg.conv_2d_nchw_fchw {dilations = dense<1> : vector<2xi64>, strides = dense<1> : vector<2xi64>} ins(%122, %cst_66 : tensor<1x256x20x20xf32>, tensor<256x256x1x1xf32>) outs(%123 : tensor<1x256x20x20xf32>) -> tensor<1x256x20x20xf32>
    %125 = linalg.generic {indexing_maps = [#map2, #map1], iterator_types = ["parallel", "parallel", "parallel", "parallel"]} ins(%124 : tensor<1x256x20x20xf32>) outs(%118 : tensor<1x256x20x20xf32>) {
    ^bb0(%in: f32, %out: f32):
      %321 = arith.negf %in : f32
      %322 = math.exp %321 : f32
      %323 = arith.addf %322, %cst_125 : f32
      %324 = arith.divf %cst_125, %323 : f32
      linalg.yield %324 : f32
    } -> tensor<1x256x20x20xf32>
    %126 = linalg.generic {indexing_maps = [#map2, #map2, #map1], iterator_types = ["parallel", "parallel", "parallel", "parallel"]} ins(%125, %124 : tensor<1x256x20x20xf32>, tensor<1x256x20x20xf32>) outs(%118 : tensor<1x256x20x20xf32>) {
    ^bb0(%in: f32, %in_204: f32, %out: f32):
      %321 = arith.mulf %in, %in_204 : f32
      linalg.yield %321 : f32
    } -> tensor<1x256x20x20xf32>
    %padded_138 = tensor.pad %126 low[0, 0, 1, 1] high[0, 0, 1, 1] {
    ^bb0(%arg1: index, %arg2: index, %arg3: index, %arg4: index):
      tensor.yield %cst_124 : f32
    } : tensor<1x256x20x20xf32> to tensor<1x256x22x22xf32>
    %127 = linalg.generic {indexing_maps = [#map, #map1], iterator_types = ["parallel", "parallel", "parallel", "parallel"]} ins(%cst_63 : tensor<256xf32>) outs(%118 : tensor<1x256x20x20xf32>) {
    ^bb0(%in: f32, %out: f32):
      linalg.yield %in : f32
    } -> tensor<1x256x20x20xf32>
    %128 = linalg.conv_2d_nchw_fchw {dilations = dense<1> : vector<2xi64>, strides = dense<1> : vector<2xi64>} ins(%padded_138, %cst_64 : tensor<1x256x22x22xf32>, tensor<256x256x3x3xf32>) outs(%127 : tensor<1x256x20x20xf32>) -> tensor<1x256x20x20xf32>
    %129 = linalg.generic {indexing_maps = [#map2, #map1], iterator_types = ["parallel", "parallel", "parallel", "parallel"]} ins(%128 : tensor<1x256x20x20xf32>) outs(%118 : tensor<1x256x20x20xf32>) {
    ^bb0(%in: f32, %out: f32):
      %321 = arith.negf %in : f32
      %322 = math.exp %321 : f32
      %323 = arith.addf %322, %cst_125 : f32
      %324 = arith.divf %cst_125, %323 : f32
      linalg.yield %324 : f32
    } -> tensor<1x256x20x20xf32>
    %130 = linalg.generic {indexing_maps = [#map2, #map2, #map1], iterator_types = ["parallel", "parallel", "parallel", "parallel"]} ins(%129, %128 : tensor<1x256x20x20xf32>, tensor<1x256x20x20xf32>) outs(%118 : tensor<1x256x20x20xf32>) {
    ^bb0(%in: f32, %in_204: f32, %out: f32):
      %321 = arith.mulf %in, %in_204 : f32
      linalg.yield %321 : f32
    } -> tensor<1x256x20x20xf32>
    %131 = linalg.generic {indexing_maps = [#map2, #map2, #map1], iterator_types = ["parallel", "parallel", "parallel", "parallel"]} ins(%122, %130 : tensor<1x256x20x20xf32>, tensor<1x256x20x20xf32>) outs(%118 : tensor<1x256x20x20xf32>) {
    ^bb0(%in: f32, %in_204: f32, %out: f32):
      %321 = arith.addf %in, %in_204 : f32
      linalg.yield %321 : f32
    } -> tensor<1x256x20x20xf32>
    %132 = linalg.generic {indexing_maps = [#map, #map1], iterator_types = ["parallel", "parallel", "parallel", "parallel"]} ins(%cst_61 : tensor<256xf32>) outs(%118 : tensor<1x256x20x20xf32>) {
    ^bb0(%in: f32, %out: f32):
      linalg.yield %in : f32
    } -> tensor<1x256x20x20xf32>
    %133 = linalg.conv_2d_nchw_fchw {dilations = dense<1> : vector<2xi64>, strides = dense<1> : vector<2xi64>} ins(%117, %cst_62 : tensor<1x512x20x20xf32>, tensor<256x512x1x1xf32>) outs(%132 : tensor<1x256x20x20xf32>) -> tensor<1x256x20x20xf32>
    %134 = linalg.generic {indexing_maps = [#map2, #map1], iterator_types = ["parallel", "parallel", "parallel", "parallel"]} ins(%133 : tensor<1x256x20x20xf32>) outs(%118 : tensor<1x256x20x20xf32>) {
    ^bb0(%in: f32, %out: f32):
      %321 = arith.negf %in : f32
      %322 = math.exp %321 : f32
      %323 = arith.addf %322, %cst_125 : f32
      %324 = arith.divf %cst_125, %323 : f32
      linalg.yield %324 : f32
    } -> tensor<1x256x20x20xf32>
    %135 = linalg.generic {indexing_maps = [#map2, #map2, #map1], iterator_types = ["parallel", "parallel", "parallel", "parallel"]} ins(%134, %133 : tensor<1x256x20x20xf32>, tensor<1x256x20x20xf32>) outs(%118 : tensor<1x256x20x20xf32>) {
    ^bb0(%in: f32, %in_204: f32, %out: f32):
      %321 = arith.mulf %in, %in_204 : f32
      linalg.yield %321 : f32
    } -> tensor<1x256x20x20xf32>
    %concat_139 = tensor.concat dim(1) %131, %135 : (tensor<1x256x20x20xf32>, tensor<1x256x20x20xf32>) -> tensor<1x512x20x20xf32>
    %136 = linalg.generic {indexing_maps = [#map, #map1], iterator_types = ["parallel", "parallel", "parallel", "parallel"]} ins(%cst_59 : tensor<512xf32>) outs(%113 : tensor<1x512x20x20xf32>) {
    ^bb0(%in: f32, %out: f32):
      linalg.yield %in : f32
    } -> tensor<1x512x20x20xf32>
    %137 = linalg.conv_2d_nchw_fchw {dilations = dense<1> : vector<2xi64>, strides = dense<1> : vector<2xi64>} ins(%concat_139, %cst_60 : tensor<1x512x20x20xf32>, tensor<512x512x1x1xf32>) outs(%136 : tensor<1x512x20x20xf32>) -> tensor<1x512x20x20xf32>
    %138 = linalg.generic {indexing_maps = [#map2, #map1], iterator_types = ["parallel", "parallel", "parallel", "parallel"]} ins(%137 : tensor<1x512x20x20xf32>) outs(%113 : tensor<1x512x20x20xf32>) {
    ^bb0(%in: f32, %out: f32):
      %321 = arith.negf %in : f32
      %322 = math.exp %321 : f32
      %323 = arith.addf %322, %cst_125 : f32
      %324 = arith.divf %cst_125, %323 : f32
      linalg.yield %324 : f32
    } -> tensor<1x512x20x20xf32>
    %139 = linalg.generic {indexing_maps = [#map2, #map2, #map1], iterator_types = ["parallel", "parallel", "parallel", "parallel"]} ins(%138, %137 : tensor<1x512x20x20xf32>, tensor<1x512x20x20xf32>) outs(%113 : tensor<1x512x20x20xf32>) {
    ^bb0(%in: f32, %in_204: f32, %out: f32):
      %321 = arith.mulf %in, %in_204 : f32
      linalg.yield %321 : f32
    } -> tensor<1x512x20x20xf32>
    %140 = linalg.generic {indexing_maps = [#map, #map1], iterator_types = ["parallel", "parallel", "parallel", "parallel"]} ins(%cst_57 : tensor<256xf32>) outs(%118 : tensor<1x256x20x20xf32>) {
    ^bb0(%in: f32, %out: f32):
      linalg.yield %in : f32
    } -> tensor<1x256x20x20xf32>
    %141 = linalg.conv_2d_nchw_fchw {dilations = dense<1> : vector<2xi64>, strides = dense<1> : vector<2xi64>} ins(%139, %cst_58 : tensor<1x512x20x20xf32>, tensor<256x512x1x1xf32>) outs(%140 : tensor<1x256x20x20xf32>) -> tensor<1x256x20x20xf32>
    %142 = linalg.generic {indexing_maps = [#map2, #map1], iterator_types = ["parallel", "parallel", "parallel", "parallel"]} ins(%141 : tensor<1x256x20x20xf32>) outs(%118 : tensor<1x256x20x20xf32>) {
    ^bb0(%in: f32, %out: f32):
      %321 = arith.negf %in : f32
      %322 = math.exp %321 : f32
      %323 = arith.addf %322, %cst_125 : f32
      %324 = arith.divf %cst_125, %323 : f32
      linalg.yield %324 : f32
    } -> tensor<1x256x20x20xf32>
    %143 = linalg.generic {indexing_maps = [#map2, #map2, #map1], iterator_types = ["parallel", "parallel", "parallel", "parallel"]} ins(%142, %141 : tensor<1x256x20x20xf32>, tensor<1x256x20x20xf32>) outs(%118 : tensor<1x256x20x20xf32>) {
    ^bb0(%in: f32, %in_204: f32, %out: f32):
      %321 = arith.mulf %in, %in_204 : f32
      linalg.yield %321 : f32
    } -> tensor<1x256x20x20xf32>
    %padded_140 = tensor.pad %143 low[0, 0, 2, 2] high[0, 0, 2, 2] {
    ^bb0(%arg1: index, %arg2: index, %arg3: index, %arg4: index):
      tensor.yield %cst_121 : f32
    } : tensor<1x256x20x20xf32> to tensor<1x256x24x24xf32>
    %144 = linalg.fill ins(%cst_121 : f32) outs(%118 : tensor<1x256x20x20xf32>) -> tensor<1x256x20x20xf32>
    %145 = tensor.empty() : tensor<5x5xf32>
    %146 = linalg.pooling_nchw_max {dilations = dense<1> : vector<2xi64>, strides = dense<1> : vector<2xi64>} ins(%padded_140, %145 : tensor<1x256x24x24xf32>, tensor<5x5xf32>) outs(%144 : tensor<1x256x20x20xf32>) -> tensor<1x256x20x20xf32>
    %padded_141 = tensor.pad %146 low[0, 0, 2, 2] high[0, 0, 2, 2] {
    ^bb0(%arg1: index, %arg2: index, %arg3: index, %arg4: index):
      tensor.yield %cst_121 : f32
    } : tensor<1x256x20x20xf32> to tensor<1x256x24x24xf32>
    %147 = linalg.pooling_nchw_max {dilations = dense<1> : vector<2xi64>, strides = dense<1> : vector<2xi64>} ins(%padded_141, %145 : tensor<1x256x24x24xf32>, tensor<5x5xf32>) outs(%144 : tensor<1x256x20x20xf32>) -> tensor<1x256x20x20xf32>
    %padded_142 = tensor.pad %147 low[0, 0, 2, 2] high[0, 0, 2, 2] {
    ^bb0(%arg1: index, %arg2: index, %arg3: index, %arg4: index):
      tensor.yield %cst_121 : f32
    } : tensor<1x256x20x20xf32> to tensor<1x256x24x24xf32>
    %148 = linalg.pooling_nchw_max {dilations = dense<1> : vector<2xi64>, strides = dense<1> : vector<2xi64>} ins(%padded_142, %145 : tensor<1x256x24x24xf32>, tensor<5x5xf32>) outs(%144 : tensor<1x256x20x20xf32>) -> tensor<1x256x20x20xf32>
    %concat_143 = tensor.concat dim(1) %143, %146, %147, %148 : (tensor<1x256x20x20xf32>, tensor<1x256x20x20xf32>, tensor<1x256x20x20xf32>, tensor<1x256x20x20xf32>) -> tensor<1x1024x20x20xf32>
    %149 = linalg.generic {indexing_maps = [#map, #map1], iterator_types = ["parallel", "parallel", "parallel", "parallel"]} ins(%cst_55 : tensor<512xf32>) outs(%113 : tensor<1x512x20x20xf32>) {
    ^bb0(%in: f32, %out: f32):
      linalg.yield %in : f32
    } -> tensor<1x512x20x20xf32>
    %150 = linalg.conv_2d_nchw_fchw {dilations = dense<1> : vector<2xi64>, strides = dense<1> : vector<2xi64>} ins(%concat_143, %cst_56 : tensor<1x1024x20x20xf32>, tensor<512x1024x1x1xf32>) outs(%149 : tensor<1x512x20x20xf32>) -> tensor<1x512x20x20xf32>
    %151 = linalg.generic {indexing_maps = [#map2, #map1], iterator_types = ["parallel", "parallel", "parallel", "parallel"]} ins(%150 : tensor<1x512x20x20xf32>) outs(%113 : tensor<1x512x20x20xf32>) {
    ^bb0(%in: f32, %out: f32):
      %321 = arith.negf %in : f32
      %322 = math.exp %321 : f32
      %323 = arith.addf %322, %cst_125 : f32
      %324 = arith.divf %cst_125, %323 : f32
      linalg.yield %324 : f32
    } -> tensor<1x512x20x20xf32>
    %152 = linalg.generic {indexing_maps = [#map2, #map2, #map1], iterator_types = ["parallel", "parallel", "parallel", "parallel"]} ins(%151, %150 : tensor<1x512x20x20xf32>, tensor<1x512x20x20xf32>) outs(%113 : tensor<1x512x20x20xf32>) {
    ^bb0(%in: f32, %in_204: f32, %out: f32):
      %321 = arith.mulf %in, %in_204 : f32
      linalg.yield %321 : f32
    } -> tensor<1x512x20x20xf32>
    %153 = linalg.generic {indexing_maps = [#map, #map1], iterator_types = ["parallel", "parallel", "parallel", "parallel"]} ins(%cst_53 : tensor<256xf32>) outs(%118 : tensor<1x256x20x20xf32>) {
    ^bb0(%in: f32, %out: f32):
      linalg.yield %in : f32
    } -> tensor<1x256x20x20xf32>
    %154 = linalg.conv_2d_nchw_fchw {dilations = dense<1> : vector<2xi64>, strides = dense<1> : vector<2xi64>} ins(%152, %cst_54 : tensor<1x512x20x20xf32>, tensor<256x512x1x1xf32>) outs(%153 : tensor<1x256x20x20xf32>) -> tensor<1x256x20x20xf32>
    %155 = linalg.generic {indexing_maps = [#map2, #map1], iterator_types = ["parallel", "parallel", "parallel", "parallel"]} ins(%154 : tensor<1x256x20x20xf32>) outs(%118 : tensor<1x256x20x20xf32>) {
    ^bb0(%in: f32, %out: f32):
      %321 = arith.negf %in : f32
      %322 = math.exp %321 : f32
      %323 = arith.addf %322, %cst_125 : f32
      %324 = arith.divf %cst_125, %323 : f32
      linalg.yield %324 : f32
    } -> tensor<1x256x20x20xf32>
    %156 = linalg.generic {indexing_maps = [#map2, #map2, #map1], iterator_types = ["parallel", "parallel", "parallel", "parallel"]} ins(%155, %154 : tensor<1x256x20x20xf32>, tensor<1x256x20x20xf32>) outs(%118 : tensor<1x256x20x20xf32>) {
    ^bb0(%in: f32, %in_204: f32, %out: f32):
      %321 = arith.mulf %in, %in_204 : f32
      linalg.yield %321 : f32
    } -> tensor<1x256x20x20xf32>
    %157 = linalg.generic {indexing_maps = [#map1], iterator_types = ["parallel", "parallel", "parallel", "parallel"]} outs(%68 : tensor<1x256x40x40xf32>) {
    ^bb0(%out: f32):
      %321 = linalg.index 0 : index
      %322 = linalg.index 1 : index
      %323 = linalg.index 2 : index
      %324 = linalg.index 3 : index
      %325 = arith.floordivsi %323, %c2 : index
      %326 = arith.floordivsi %324, %c2 : index
      %extracted = tensor.extract %156[%321, %322, %325, %326] : tensor<1x256x20x20xf32>
      linalg.yield %extracted : f32
    } -> tensor<1x256x40x40xf32>
    %concat_144 = tensor.concat dim(1) %157, %112 : (tensor<1x256x40x40xf32>, tensor<1x256x40x40xf32>) -> tensor<1x512x40x40xf32>
    %158 = linalg.generic {indexing_maps = [#map, #map1], iterator_types = ["parallel", "parallel", "parallel", "parallel"]} ins(%cst_51 : tensor<128xf32>) outs(%73 : tensor<1x128x40x40xf32>) {
    ^bb0(%in: f32, %out: f32):
      linalg.yield %in : f32
    } -> tensor<1x128x40x40xf32>
    %159 = linalg.conv_2d_nchw_fchw {dilations = dense<1> : vector<2xi64>, strides = dense<1> : vector<2xi64>} ins(%concat_144, %cst_52 : tensor<1x512x40x40xf32>, tensor<128x512x1x1xf32>) outs(%158 : tensor<1x128x40x40xf32>) -> tensor<1x128x40x40xf32>
    %160 = linalg.generic {indexing_maps = [#map2, #map1], iterator_types = ["parallel", "parallel", "parallel", "parallel"]} ins(%159 : tensor<1x128x40x40xf32>) outs(%73 : tensor<1x128x40x40xf32>) {
    ^bb0(%in: f32, %out: f32):
      %321 = arith.negf %in : f32
      %322 = math.exp %321 : f32
      %323 = arith.addf %322, %cst_125 : f32
      %324 = arith.divf %cst_125, %323 : f32
      linalg.yield %324 : f32
    } -> tensor<1x128x40x40xf32>
    %161 = linalg.generic {indexing_maps = [#map2, #map2, #map1], iterator_types = ["parallel", "parallel", "parallel", "parallel"]} ins(%160, %159 : tensor<1x128x40x40xf32>, tensor<1x128x40x40xf32>) outs(%73 : tensor<1x128x40x40xf32>) {
    ^bb0(%in: f32, %in_204: f32, %out: f32):
      %321 = arith.mulf %in, %in_204 : f32
      linalg.yield %321 : f32
    } -> tensor<1x128x40x40xf32>
    %162 = linalg.generic {indexing_maps = [#map, #map1], iterator_types = ["parallel", "parallel", "parallel", "parallel"]} ins(%cst_49 : tensor<128xf32>) outs(%73 : tensor<1x128x40x40xf32>) {
    ^bb0(%in: f32, %out: f32):
      linalg.yield %in : f32
    } -> tensor<1x128x40x40xf32>
    %163 = linalg.conv_2d_nchw_fchw {dilations = dense<1> : vector<2xi64>, strides = dense<1> : vector<2xi64>} ins(%161, %cst_50 : tensor<1x128x40x40xf32>, tensor<128x128x1x1xf32>) outs(%162 : tensor<1x128x40x40xf32>) -> tensor<1x128x40x40xf32>
    %164 = linalg.generic {indexing_maps = [#map2, #map1], iterator_types = ["parallel", "parallel", "parallel", "parallel"]} ins(%163 : tensor<1x128x40x40xf32>) outs(%73 : tensor<1x128x40x40xf32>) {
    ^bb0(%in: f32, %out: f32):
      %321 = arith.negf %in : f32
      %322 = math.exp %321 : f32
      %323 = arith.addf %322, %cst_125 : f32
      %324 = arith.divf %cst_125, %323 : f32
      linalg.yield %324 : f32
    } -> tensor<1x128x40x40xf32>
    %165 = linalg.generic {indexing_maps = [#map2, #map2, #map1], iterator_types = ["parallel", "parallel", "parallel", "parallel"]} ins(%164, %163 : tensor<1x128x40x40xf32>, tensor<1x128x40x40xf32>) outs(%73 : tensor<1x128x40x40xf32>) {
    ^bb0(%in: f32, %in_204: f32, %out: f32):
      %321 = arith.mulf %in, %in_204 : f32
      linalg.yield %321 : f32
    } -> tensor<1x128x40x40xf32>
    %padded_145 = tensor.pad %165 low[0, 0, 1, 1] high[0, 0, 1, 1] {
    ^bb0(%arg1: index, %arg2: index, %arg3: index, %arg4: index):
      tensor.yield %cst_124 : f32
    } : tensor<1x128x40x40xf32> to tensor<1x128x42x42xf32>
    %166 = linalg.generic {indexing_maps = [#map, #map1], iterator_types = ["parallel", "parallel", "parallel", "parallel"]} ins(%cst_47 : tensor<128xf32>) outs(%73 : tensor<1x128x40x40xf32>) {
    ^bb0(%in: f32, %out: f32):
      linalg.yield %in : f32
    } -> tensor<1x128x40x40xf32>
    %167 = linalg.conv_2d_nchw_fchw {dilations = dense<1> : vector<2xi64>, strides = dense<1> : vector<2xi64>} ins(%padded_145, %cst_48 : tensor<1x128x42x42xf32>, tensor<128x128x3x3xf32>) outs(%166 : tensor<1x128x40x40xf32>) -> tensor<1x128x40x40xf32>
    %168 = linalg.generic {indexing_maps = [#map2, #map1], iterator_types = ["parallel", "parallel", "parallel", "parallel"]} ins(%167 : tensor<1x128x40x40xf32>) outs(%73 : tensor<1x128x40x40xf32>) {
    ^bb0(%in: f32, %out: f32):
      %321 = arith.negf %in : f32
      %322 = math.exp %321 : f32
      %323 = arith.addf %322, %cst_125 : f32
      %324 = arith.divf %cst_125, %323 : f32
      linalg.yield %324 : f32
    } -> tensor<1x128x40x40xf32>
    %169 = linalg.generic {indexing_maps = [#map2, #map2, #map1], iterator_types = ["parallel", "parallel", "parallel", "parallel"]} ins(%168, %167 : tensor<1x128x40x40xf32>, tensor<1x128x40x40xf32>) outs(%73 : tensor<1x128x40x40xf32>) {
    ^bb0(%in: f32, %in_204: f32, %out: f32):
      %321 = arith.mulf %in, %in_204 : f32
      linalg.yield %321 : f32
    } -> tensor<1x128x40x40xf32>
    %170 = linalg.generic {indexing_maps = [#map, #map1], iterator_types = ["parallel", "parallel", "parallel", "parallel"]} ins(%cst_45 : tensor<128xf32>) outs(%73 : tensor<1x128x40x40xf32>) {
    ^bb0(%in: f32, %out: f32):
      linalg.yield %in : f32
    } -> tensor<1x128x40x40xf32>
    %171 = linalg.conv_2d_nchw_fchw {dilations = dense<1> : vector<2xi64>, strides = dense<1> : vector<2xi64>} ins(%concat_144, %cst_46 : tensor<1x512x40x40xf32>, tensor<128x512x1x1xf32>) outs(%170 : tensor<1x128x40x40xf32>) -> tensor<1x128x40x40xf32>
    %172 = linalg.generic {indexing_maps = [#map2, #map1], iterator_types = ["parallel", "parallel", "parallel", "parallel"]} ins(%171 : tensor<1x128x40x40xf32>) outs(%73 : tensor<1x128x40x40xf32>) {
    ^bb0(%in: f32, %out: f32):
      %321 = arith.negf %in : f32
      %322 = math.exp %321 : f32
      %323 = arith.addf %322, %cst_125 : f32
      %324 = arith.divf %cst_125, %323 : f32
      linalg.yield %324 : f32
    } -> tensor<1x128x40x40xf32>
    %173 = linalg.generic {indexing_maps = [#map2, #map2, #map1], iterator_types = ["parallel", "parallel", "parallel", "parallel"]} ins(%172, %171 : tensor<1x128x40x40xf32>, tensor<1x128x40x40xf32>) outs(%73 : tensor<1x128x40x40xf32>) {
    ^bb0(%in: f32, %in_204: f32, %out: f32):
      %321 = arith.mulf %in, %in_204 : f32
      linalg.yield %321 : f32
    } -> tensor<1x128x40x40xf32>
    %concat_146 = tensor.concat dim(1) %169, %173 : (tensor<1x128x40x40xf32>, tensor<1x128x40x40xf32>) -> tensor<1x256x40x40xf32>
    %174 = linalg.generic {indexing_maps = [#map, #map1], iterator_types = ["parallel", "parallel", "parallel", "parallel"]} ins(%cst_43 : tensor<256xf32>) outs(%68 : tensor<1x256x40x40xf32>) {
    ^bb0(%in: f32, %out: f32):
      linalg.yield %in : f32
    } -> tensor<1x256x40x40xf32>
    %175 = linalg.conv_2d_nchw_fchw {dilations = dense<1> : vector<2xi64>, strides = dense<1> : vector<2xi64>} ins(%concat_146, %cst_44 : tensor<1x256x40x40xf32>, tensor<256x256x1x1xf32>) outs(%174 : tensor<1x256x40x40xf32>) -> tensor<1x256x40x40xf32>
    %176 = linalg.generic {indexing_maps = [#map2, #map1], iterator_types = ["parallel", "parallel", "parallel", "parallel"]} ins(%175 : tensor<1x256x40x40xf32>) outs(%68 : tensor<1x256x40x40xf32>) {
    ^bb0(%in: f32, %out: f32):
      %321 = arith.negf %in : f32
      %322 = math.exp %321 : f32
      %323 = arith.addf %322, %cst_125 : f32
      %324 = arith.divf %cst_125, %323 : f32
      linalg.yield %324 : f32
    } -> tensor<1x256x40x40xf32>
    %177 = linalg.generic {indexing_maps = [#map2, #map2, #map1], iterator_types = ["parallel", "parallel", "parallel", "parallel"]} ins(%176, %175 : tensor<1x256x40x40xf32>, tensor<1x256x40x40xf32>) outs(%68 : tensor<1x256x40x40xf32>) {
    ^bb0(%in: f32, %in_204: f32, %out: f32):
      %321 = arith.mulf %in, %in_204 : f32
      linalg.yield %321 : f32
    } -> tensor<1x256x40x40xf32>
    %178 = linalg.generic {indexing_maps = [#map, #map1], iterator_types = ["parallel", "parallel", "parallel", "parallel"]} ins(%cst_41 : tensor<128xf32>) outs(%73 : tensor<1x128x40x40xf32>) {
    ^bb0(%in: f32, %out: f32):
      linalg.yield %in : f32
    } -> tensor<1x128x40x40xf32>
    %179 = linalg.conv_2d_nchw_fchw {dilations = dense<1> : vector<2xi64>, strides = dense<1> : vector<2xi64>} ins(%177, %cst_42 : tensor<1x256x40x40xf32>, tensor<128x256x1x1xf32>) outs(%178 : tensor<1x128x40x40xf32>) -> tensor<1x128x40x40xf32>
    %180 = linalg.generic {indexing_maps = [#map2, #map1], iterator_types = ["parallel", "parallel", "parallel", "parallel"]} ins(%179 : tensor<1x128x40x40xf32>) outs(%73 : tensor<1x128x40x40xf32>) {
    ^bb0(%in: f32, %out: f32):
      %321 = arith.negf %in : f32
      %322 = math.exp %321 : f32
      %323 = arith.addf %322, %cst_125 : f32
      %324 = arith.divf %cst_125, %323 : f32
      linalg.yield %324 : f32
    } -> tensor<1x128x40x40xf32>
    %181 = linalg.generic {indexing_maps = [#map2, #map2, #map1], iterator_types = ["parallel", "parallel", "parallel", "parallel"]} ins(%180, %179 : tensor<1x128x40x40xf32>, tensor<1x128x40x40xf32>) outs(%73 : tensor<1x128x40x40xf32>) {
    ^bb0(%in: f32, %in_204: f32, %out: f32):
      %321 = arith.mulf %in, %in_204 : f32
      linalg.yield %321 : f32
    } -> tensor<1x128x40x40xf32>
    %182 = linalg.generic {indexing_maps = [#map1], iterator_types = ["parallel", "parallel", "parallel", "parallel"]} outs(%32 : tensor<1x128x80x80xf32>) {
    ^bb0(%out: f32):
      %321 = linalg.index 0 : index
      %322 = linalg.index 1 : index
      %323 = linalg.index 2 : index
      %324 = linalg.index 3 : index
      %325 = arith.floordivsi %323, %c2 : index
      %326 = arith.floordivsi %324, %c2 : index
      %extracted = tensor.extract %181[%321, %322, %325, %326] : tensor<1x128x40x40xf32>
      linalg.yield %extracted : f32
    } -> tensor<1x128x80x80xf32>
    %concat_147 = tensor.concat dim(1) %182, %67 : (tensor<1x128x80x80xf32>, tensor<1x128x80x80xf32>) -> tensor<1x256x80x80xf32>
    %183 = linalg.generic {indexing_maps = [#map, #map1], iterator_types = ["parallel", "parallel", "parallel", "parallel"]} ins(%cst_39 : tensor<64xf32>) outs(%37 : tensor<1x64x80x80xf32>) {
    ^bb0(%in: f32, %out: f32):
      linalg.yield %in : f32
    } -> tensor<1x64x80x80xf32>
    %184 = linalg.conv_2d_nchw_fchw {dilations = dense<1> : vector<2xi64>, strides = dense<1> : vector<2xi64>} ins(%concat_147, %cst_40 : tensor<1x256x80x80xf32>, tensor<64x256x1x1xf32>) outs(%183 : tensor<1x64x80x80xf32>) -> tensor<1x64x80x80xf32>
    %185 = linalg.generic {indexing_maps = [#map2, #map1], iterator_types = ["parallel", "parallel", "parallel", "parallel"]} ins(%184 : tensor<1x64x80x80xf32>) outs(%37 : tensor<1x64x80x80xf32>) {
    ^bb0(%in: f32, %out: f32):
      %321 = arith.negf %in : f32
      %322 = math.exp %321 : f32
      %323 = arith.addf %322, %cst_125 : f32
      %324 = arith.divf %cst_125, %323 : f32
      linalg.yield %324 : f32
    } -> tensor<1x64x80x80xf32>
    %186 = linalg.generic {indexing_maps = [#map2, #map2, #map1], iterator_types = ["parallel", "parallel", "parallel", "parallel"]} ins(%185, %184 : tensor<1x64x80x80xf32>, tensor<1x64x80x80xf32>) outs(%37 : tensor<1x64x80x80xf32>) {
    ^bb0(%in: f32, %in_204: f32, %out: f32):
      %321 = arith.mulf %in, %in_204 : f32
      linalg.yield %321 : f32
    } -> tensor<1x64x80x80xf32>
    %187 = linalg.generic {indexing_maps = [#map, #map1], iterator_types = ["parallel", "parallel", "parallel", "parallel"]} ins(%cst_37 : tensor<64xf32>) outs(%37 : tensor<1x64x80x80xf32>) {
    ^bb0(%in: f32, %out: f32):
      linalg.yield %in : f32
    } -> tensor<1x64x80x80xf32>
    %188 = linalg.conv_2d_nchw_fchw {dilations = dense<1> : vector<2xi64>, strides = dense<1> : vector<2xi64>} ins(%186, %cst_38 : tensor<1x64x80x80xf32>, tensor<64x64x1x1xf32>) outs(%187 : tensor<1x64x80x80xf32>) -> tensor<1x64x80x80xf32>
    %189 = linalg.generic {indexing_maps = [#map2, #map1], iterator_types = ["parallel", "parallel", "parallel", "parallel"]} ins(%188 : tensor<1x64x80x80xf32>) outs(%37 : tensor<1x64x80x80xf32>) {
    ^bb0(%in: f32, %out: f32):
      %321 = arith.negf %in : f32
      %322 = math.exp %321 : f32
      %323 = arith.addf %322, %cst_125 : f32
      %324 = arith.divf %cst_125, %323 : f32
      linalg.yield %324 : f32
    } -> tensor<1x64x80x80xf32>
    %190 = linalg.generic {indexing_maps = [#map2, #map2, #map1], iterator_types = ["parallel", "parallel", "parallel", "parallel"]} ins(%189, %188 : tensor<1x64x80x80xf32>, tensor<1x64x80x80xf32>) outs(%37 : tensor<1x64x80x80xf32>) {
    ^bb0(%in: f32, %in_204: f32, %out: f32):
      %321 = arith.mulf %in, %in_204 : f32
      linalg.yield %321 : f32
    } -> tensor<1x64x80x80xf32>
    %padded_148 = tensor.pad %190 low[0, 0, 1, 1] high[0, 0, 1, 1] {
    ^bb0(%arg1: index, %arg2: index, %arg3: index, %arg4: index):
      tensor.yield %cst_124 : f32
    } : tensor<1x64x80x80xf32> to tensor<1x64x82x82xf32>
    %191 = linalg.generic {indexing_maps = [#map, #map1], iterator_types = ["parallel", "parallel", "parallel", "parallel"]} ins(%cst_35 : tensor<64xf32>) outs(%37 : tensor<1x64x80x80xf32>) {
    ^bb0(%in: f32, %out: f32):
      linalg.yield %in : f32
    } -> tensor<1x64x80x80xf32>
    %192 = linalg.conv_2d_nchw_fchw {dilations = dense<1> : vector<2xi64>, strides = dense<1> : vector<2xi64>} ins(%padded_148, %cst_36 : tensor<1x64x82x82xf32>, tensor<64x64x3x3xf32>) outs(%191 : tensor<1x64x80x80xf32>) -> tensor<1x64x80x80xf32>
    %193 = linalg.generic {indexing_maps = [#map2, #map1], iterator_types = ["parallel", "parallel", "parallel", "parallel"]} ins(%192 : tensor<1x64x80x80xf32>) outs(%37 : tensor<1x64x80x80xf32>) {
    ^bb0(%in: f32, %out: f32):
      %321 = arith.negf %in : f32
      %322 = math.exp %321 : f32
      %323 = arith.addf %322, %cst_125 : f32
      %324 = arith.divf %cst_125, %323 : f32
      linalg.yield %324 : f32
    } -> tensor<1x64x80x80xf32>
    %194 = linalg.generic {indexing_maps = [#map2, #map2, #map1], iterator_types = ["parallel", "parallel", "parallel", "parallel"]} ins(%193, %192 : tensor<1x64x80x80xf32>, tensor<1x64x80x80xf32>) outs(%37 : tensor<1x64x80x80xf32>) {
    ^bb0(%in: f32, %in_204: f32, %out: f32):
      %321 = arith.mulf %in, %in_204 : f32
      linalg.yield %321 : f32
    } -> tensor<1x64x80x80xf32>
    %195 = linalg.generic {indexing_maps = [#map, #map1], iterator_types = ["parallel", "parallel", "parallel", "parallel"]} ins(%cst_33 : tensor<64xf32>) outs(%37 : tensor<1x64x80x80xf32>) {
    ^bb0(%in: f32, %out: f32):
      linalg.yield %in : f32
    } -> tensor<1x64x80x80xf32>
    %196 = linalg.conv_2d_nchw_fchw {dilations = dense<1> : vector<2xi64>, strides = dense<1> : vector<2xi64>} ins(%concat_147, %cst_34 : tensor<1x256x80x80xf32>, tensor<64x256x1x1xf32>) outs(%195 : tensor<1x64x80x80xf32>) -> tensor<1x64x80x80xf32>
    %197 = linalg.generic {indexing_maps = [#map2, #map1], iterator_types = ["parallel", "parallel", "parallel", "parallel"]} ins(%196 : tensor<1x64x80x80xf32>) outs(%37 : tensor<1x64x80x80xf32>) {
    ^bb0(%in: f32, %out: f32):
      %321 = arith.negf %in : f32
      %322 = math.exp %321 : f32
      %323 = arith.addf %322, %cst_125 : f32
      %324 = arith.divf %cst_125, %323 : f32
      linalg.yield %324 : f32
    } -> tensor<1x64x80x80xf32>
    %198 = linalg.generic {indexing_maps = [#map2, #map2, #map1], iterator_types = ["parallel", "parallel", "parallel", "parallel"]} ins(%197, %196 : tensor<1x64x80x80xf32>, tensor<1x64x80x80xf32>) outs(%37 : tensor<1x64x80x80xf32>) {
    ^bb0(%in: f32, %in_204: f32, %out: f32):
      %321 = arith.mulf %in, %in_204 : f32
      linalg.yield %321 : f32
    } -> tensor<1x64x80x80xf32>
    %concat_149 = tensor.concat dim(1) %194, %198 : (tensor<1x64x80x80xf32>, tensor<1x64x80x80xf32>) -> tensor<1x128x80x80xf32>
    %199 = linalg.generic {indexing_maps = [#map, #map1], iterator_types = ["parallel", "parallel", "parallel", "parallel"]} ins(%cst_31 : tensor<128xf32>) outs(%32 : tensor<1x128x80x80xf32>) {
    ^bb0(%in: f32, %out: f32):
      linalg.yield %in : f32
    } -> tensor<1x128x80x80xf32>
    %200 = linalg.conv_2d_nchw_fchw {dilations = dense<1> : vector<2xi64>, strides = dense<1> : vector<2xi64>} ins(%concat_149, %cst_32 : tensor<1x128x80x80xf32>, tensor<128x128x1x1xf32>) outs(%199 : tensor<1x128x80x80xf32>) -> tensor<1x128x80x80xf32>
    %201 = linalg.generic {indexing_maps = [#map2, #map1], iterator_types = ["parallel", "parallel", "parallel", "parallel"]} ins(%200 : tensor<1x128x80x80xf32>) outs(%32 : tensor<1x128x80x80xf32>) {
    ^bb0(%in: f32, %out: f32):
      %321 = arith.negf %in : f32
      %322 = math.exp %321 : f32
      %323 = arith.addf %322, %cst_125 : f32
      %324 = arith.divf %cst_125, %323 : f32
      linalg.yield %324 : f32
    } -> tensor<1x128x80x80xf32>
    %202 = linalg.generic {indexing_maps = [#map2, #map2, #map1], iterator_types = ["parallel", "parallel", "parallel", "parallel"]} ins(%201, %200 : tensor<1x128x80x80xf32>, tensor<1x128x80x80xf32>) outs(%32 : tensor<1x128x80x80xf32>) {
    ^bb0(%in: f32, %in_204: f32, %out: f32):
      %321 = arith.mulf %in, %in_204 : f32
      linalg.yield %321 : f32
    } -> tensor<1x128x80x80xf32>
    %padded_150 = tensor.pad %202 low[0, 0, 1, 1] high[0, 0, 1, 1] {
    ^bb0(%arg1: index, %arg2: index, %arg3: index, %arg4: index):
      tensor.yield %cst_124 : f32
    } : tensor<1x128x80x80xf32> to tensor<1x128x82x82xf32>
    %203 = linalg.generic {indexing_maps = [#map, #map1], iterator_types = ["parallel", "parallel", "parallel", "parallel"]} ins(%cst_29 : tensor<128xf32>) outs(%73 : tensor<1x128x40x40xf32>) {
    ^bb0(%in: f32, %out: f32):
      linalg.yield %in : f32
    } -> tensor<1x128x40x40xf32>
    %204 = linalg.conv_2d_nchw_fchw {dilations = dense<1> : vector<2xi64>, strides = dense<2> : vector<2xi64>} ins(%padded_150, %cst_30 : tensor<1x128x82x82xf32>, tensor<128x128x3x3xf32>) outs(%203 : tensor<1x128x40x40xf32>) -> tensor<1x128x40x40xf32>
    %205 = linalg.generic {indexing_maps = [#map2, #map1], iterator_types = ["parallel", "parallel", "parallel", "parallel"]} ins(%204 : tensor<1x128x40x40xf32>) outs(%73 : tensor<1x128x40x40xf32>) {
    ^bb0(%in: f32, %out: f32):
      %321 = arith.negf %in : f32
      %322 = math.exp %321 : f32
      %323 = arith.addf %322, %cst_125 : f32
      %324 = arith.divf %cst_125, %323 : f32
      linalg.yield %324 : f32
    } -> tensor<1x128x40x40xf32>
    %206 = linalg.generic {indexing_maps = [#map2, #map2, #map1], iterator_types = ["parallel", "parallel", "parallel", "parallel"]} ins(%205, %204 : tensor<1x128x40x40xf32>, tensor<1x128x40x40xf32>) outs(%73 : tensor<1x128x40x40xf32>) {
    ^bb0(%in: f32, %in_204: f32, %out: f32):
      %321 = arith.mulf %in, %in_204 : f32
      linalg.yield %321 : f32
    } -> tensor<1x128x40x40xf32>
    %concat_151 = tensor.concat dim(1) %206, %181 : (tensor<1x128x40x40xf32>, tensor<1x128x40x40xf32>) -> tensor<1x256x40x40xf32>
    %207 = linalg.generic {indexing_maps = [#map, #map1], iterator_types = ["parallel", "parallel", "parallel", "parallel"]} ins(%cst_27 : tensor<128xf32>) outs(%73 : tensor<1x128x40x40xf32>) {
    ^bb0(%in: f32, %out: f32):
      linalg.yield %in : f32
    } -> tensor<1x128x40x40xf32>
    %208 = linalg.conv_2d_nchw_fchw {dilations = dense<1> : vector<2xi64>, strides = dense<1> : vector<2xi64>} ins(%concat_151, %cst_28 : tensor<1x256x40x40xf32>, tensor<128x256x1x1xf32>) outs(%207 : tensor<1x128x40x40xf32>) -> tensor<1x128x40x40xf32>
    %209 = linalg.generic {indexing_maps = [#map2, #map1], iterator_types = ["parallel", "parallel", "parallel", "parallel"]} ins(%208 : tensor<1x128x40x40xf32>) outs(%73 : tensor<1x128x40x40xf32>) {
    ^bb0(%in: f32, %out: f32):
      %321 = arith.negf %in : f32
      %322 = math.exp %321 : f32
      %323 = arith.addf %322, %cst_125 : f32
      %324 = arith.divf %cst_125, %323 : f32
      linalg.yield %324 : f32
    } -> tensor<1x128x40x40xf32>
    %210 = linalg.generic {indexing_maps = [#map2, #map2, #map1], iterator_types = ["parallel", "parallel", "parallel", "parallel"]} ins(%209, %208 : tensor<1x128x40x40xf32>, tensor<1x128x40x40xf32>) outs(%73 : tensor<1x128x40x40xf32>) {
    ^bb0(%in: f32, %in_204: f32, %out: f32):
      %321 = arith.mulf %in, %in_204 : f32
      linalg.yield %321 : f32
    } -> tensor<1x128x40x40xf32>
    %211 = linalg.generic {indexing_maps = [#map, #map1], iterator_types = ["parallel", "parallel", "parallel", "parallel"]} ins(%cst_25 : tensor<128xf32>) outs(%73 : tensor<1x128x40x40xf32>) {
    ^bb0(%in: f32, %out: f32):
      linalg.yield %in : f32
    } -> tensor<1x128x40x40xf32>
    %212 = linalg.conv_2d_nchw_fchw {dilations = dense<1> : vector<2xi64>, strides = dense<1> : vector<2xi64>} ins(%210, %cst_26 : tensor<1x128x40x40xf32>, tensor<128x128x1x1xf32>) outs(%211 : tensor<1x128x40x40xf32>) -> tensor<1x128x40x40xf32>
    %213 = linalg.generic {indexing_maps = [#map2, #map1], iterator_types = ["parallel", "parallel", "parallel", "parallel"]} ins(%212 : tensor<1x128x40x40xf32>) outs(%73 : tensor<1x128x40x40xf32>) {
    ^bb0(%in: f32, %out: f32):
      %321 = arith.negf %in : f32
      %322 = math.exp %321 : f32
      %323 = arith.addf %322, %cst_125 : f32
      %324 = arith.divf %cst_125, %323 : f32
      linalg.yield %324 : f32
    } -> tensor<1x128x40x40xf32>
    %214 = linalg.generic {indexing_maps = [#map2, #map2, #map1], iterator_types = ["parallel", "parallel", "parallel", "parallel"]} ins(%213, %212 : tensor<1x128x40x40xf32>, tensor<1x128x40x40xf32>) outs(%73 : tensor<1x128x40x40xf32>) {
    ^bb0(%in: f32, %in_204: f32, %out: f32):
      %321 = arith.mulf %in, %in_204 : f32
      linalg.yield %321 : f32
    } -> tensor<1x128x40x40xf32>
    %padded_152 = tensor.pad %214 low[0, 0, 1, 1] high[0, 0, 1, 1] {
    ^bb0(%arg1: index, %arg2: index, %arg3: index, %arg4: index):
      tensor.yield %cst_124 : f32
    } : tensor<1x128x40x40xf32> to tensor<1x128x42x42xf32>
    %215 = linalg.generic {indexing_maps = [#map, #map1], iterator_types = ["parallel", "parallel", "parallel", "parallel"]} ins(%cst_23 : tensor<128xf32>) outs(%73 : tensor<1x128x40x40xf32>) {
    ^bb0(%in: f32, %out: f32):
      linalg.yield %in : f32
    } -> tensor<1x128x40x40xf32>
    %216 = linalg.conv_2d_nchw_fchw {dilations = dense<1> : vector<2xi64>, strides = dense<1> : vector<2xi64>} ins(%padded_152, %cst_24 : tensor<1x128x42x42xf32>, tensor<128x128x3x3xf32>) outs(%215 : tensor<1x128x40x40xf32>) -> tensor<1x128x40x40xf32>
    %217 = linalg.generic {indexing_maps = [#map2, #map1], iterator_types = ["parallel", "parallel", "parallel", "parallel"]} ins(%216 : tensor<1x128x40x40xf32>) outs(%73 : tensor<1x128x40x40xf32>) {
    ^bb0(%in: f32, %out: f32):
      %321 = arith.negf %in : f32
      %322 = math.exp %321 : f32
      %323 = arith.addf %322, %cst_125 : f32
      %324 = arith.divf %cst_125, %323 : f32
      linalg.yield %324 : f32
    } -> tensor<1x128x40x40xf32>
    %218 = linalg.generic {indexing_maps = [#map2, #map2, #map1], iterator_types = ["parallel", "parallel", "parallel", "parallel"]} ins(%217, %216 : tensor<1x128x40x40xf32>, tensor<1x128x40x40xf32>) outs(%73 : tensor<1x128x40x40xf32>) {
    ^bb0(%in: f32, %in_204: f32, %out: f32):
      %321 = arith.mulf %in, %in_204 : f32
      linalg.yield %321 : f32
    } -> tensor<1x128x40x40xf32>
    %219 = linalg.generic {indexing_maps = [#map, #map1], iterator_types = ["parallel", "parallel", "parallel", "parallel"]} ins(%cst_21 : tensor<128xf32>) outs(%73 : tensor<1x128x40x40xf32>) {
    ^bb0(%in: f32, %out: f32):
      linalg.yield %in : f32
    } -> tensor<1x128x40x40xf32>
    %220 = linalg.conv_2d_nchw_fchw {dilations = dense<1> : vector<2xi64>, strides = dense<1> : vector<2xi64>} ins(%concat_151, %cst_22 : tensor<1x256x40x40xf32>, tensor<128x256x1x1xf32>) outs(%219 : tensor<1x128x40x40xf32>) -> tensor<1x128x40x40xf32>
    %221 = linalg.generic {indexing_maps = [#map2, #map1], iterator_types = ["parallel", "parallel", "parallel", "parallel"]} ins(%220 : tensor<1x128x40x40xf32>) outs(%73 : tensor<1x128x40x40xf32>) {
    ^bb0(%in: f32, %out: f32):
      %321 = arith.negf %in : f32
      %322 = math.exp %321 : f32
      %323 = arith.addf %322, %cst_125 : f32
      %324 = arith.divf %cst_125, %323 : f32
      linalg.yield %324 : f32
    } -> tensor<1x128x40x40xf32>
    %222 = linalg.generic {indexing_maps = [#map2, #map2, #map1], iterator_types = ["parallel", "parallel", "parallel", "parallel"]} ins(%221, %220 : tensor<1x128x40x40xf32>, tensor<1x128x40x40xf32>) outs(%73 : tensor<1x128x40x40xf32>) {
    ^bb0(%in: f32, %in_204: f32, %out: f32):
      %321 = arith.mulf %in, %in_204 : f32
      linalg.yield %321 : f32
    } -> tensor<1x128x40x40xf32>
    %concat_153 = tensor.concat dim(1) %218, %222 : (tensor<1x128x40x40xf32>, tensor<1x128x40x40xf32>) -> tensor<1x256x40x40xf32>
    %223 = linalg.generic {indexing_maps = [#map, #map1], iterator_types = ["parallel", "parallel", "parallel", "parallel"]} ins(%cst_19 : tensor<256xf32>) outs(%68 : tensor<1x256x40x40xf32>) {
    ^bb0(%in: f32, %out: f32):
      linalg.yield %in : f32
    } -> tensor<1x256x40x40xf32>
    %224 = linalg.conv_2d_nchw_fchw {dilations = dense<1> : vector<2xi64>, strides = dense<1> : vector<2xi64>} ins(%concat_153, %cst_20 : tensor<1x256x40x40xf32>, tensor<256x256x1x1xf32>) outs(%223 : tensor<1x256x40x40xf32>) -> tensor<1x256x40x40xf32>
    %225 = linalg.generic {indexing_maps = [#map2, #map1], iterator_types = ["parallel", "parallel", "parallel", "parallel"]} ins(%224 : tensor<1x256x40x40xf32>) outs(%68 : tensor<1x256x40x40xf32>) {
    ^bb0(%in: f32, %out: f32):
      %321 = arith.negf %in : f32
      %322 = math.exp %321 : f32
      %323 = arith.addf %322, %cst_125 : f32
      %324 = arith.divf %cst_125, %323 : f32
      linalg.yield %324 : f32
    } -> tensor<1x256x40x40xf32>
    %226 = linalg.generic {indexing_maps = [#map2, #map2, #map1], iterator_types = ["parallel", "parallel", "parallel", "parallel"]} ins(%225, %224 : tensor<1x256x40x40xf32>, tensor<1x256x40x40xf32>) outs(%68 : tensor<1x256x40x40xf32>) {
    ^bb0(%in: f32, %in_204: f32, %out: f32):
      %321 = arith.mulf %in, %in_204 : f32
      linalg.yield %321 : f32
    } -> tensor<1x256x40x40xf32>
    %padded_154 = tensor.pad %226 low[0, 0, 1, 1] high[0, 0, 1, 1] {
    ^bb0(%arg1: index, %arg2: index, %arg3: index, %arg4: index):
      tensor.yield %cst_124 : f32
    } : tensor<1x256x40x40xf32> to tensor<1x256x42x42xf32>
    %227 = linalg.generic {indexing_maps = [#map, #map1], iterator_types = ["parallel", "parallel", "parallel", "parallel"]} ins(%cst_17 : tensor<256xf32>) outs(%118 : tensor<1x256x20x20xf32>) {
    ^bb0(%in: f32, %out: f32):
      linalg.yield %in : f32
    } -> tensor<1x256x20x20xf32>
    %228 = linalg.conv_2d_nchw_fchw {dilations = dense<1> : vector<2xi64>, strides = dense<2> : vector<2xi64>} ins(%padded_154, %cst_18 : tensor<1x256x42x42xf32>, tensor<256x256x3x3xf32>) outs(%227 : tensor<1x256x20x20xf32>) -> tensor<1x256x20x20xf32>
    %229 = linalg.generic {indexing_maps = [#map2, #map1], iterator_types = ["parallel", "parallel", "parallel", "parallel"]} ins(%228 : tensor<1x256x20x20xf32>) outs(%118 : tensor<1x256x20x20xf32>) {
    ^bb0(%in: f32, %out: f32):
      %321 = arith.negf %in : f32
      %322 = math.exp %321 : f32
      %323 = arith.addf %322, %cst_125 : f32
      %324 = arith.divf %cst_125, %323 : f32
      linalg.yield %324 : f32
    } -> tensor<1x256x20x20xf32>
    %230 = linalg.generic {indexing_maps = [#map2, #map2, #map1], iterator_types = ["parallel", "parallel", "parallel", "parallel"]} ins(%229, %228 : tensor<1x256x20x20xf32>, tensor<1x256x20x20xf32>) outs(%118 : tensor<1x256x20x20xf32>) {
    ^bb0(%in: f32, %in_204: f32, %out: f32):
      %321 = arith.mulf %in, %in_204 : f32
      linalg.yield %321 : f32
    } -> tensor<1x256x20x20xf32>
    %concat_155 = tensor.concat dim(1) %230, %156 : (tensor<1x256x20x20xf32>, tensor<1x256x20x20xf32>) -> tensor<1x512x20x20xf32>
    %231 = linalg.generic {indexing_maps = [#map, #map1], iterator_types = ["parallel", "parallel", "parallel", "parallel"]} ins(%cst_15 : tensor<256xf32>) outs(%118 : tensor<1x256x20x20xf32>) {
    ^bb0(%in: f32, %out: f32):
      linalg.yield %in : f32
    } -> tensor<1x256x20x20xf32>
    %232 = linalg.conv_2d_nchw_fchw {dilations = dense<1> : vector<2xi64>, strides = dense<1> : vector<2xi64>} ins(%concat_155, %cst_16 : tensor<1x512x20x20xf32>, tensor<256x512x1x1xf32>) outs(%231 : tensor<1x256x20x20xf32>) -> tensor<1x256x20x20xf32>
    %233 = linalg.generic {indexing_maps = [#map2, #map1], iterator_types = ["parallel", "parallel", "parallel", "parallel"]} ins(%232 : tensor<1x256x20x20xf32>) outs(%118 : tensor<1x256x20x20xf32>) {
    ^bb0(%in: f32, %out: f32):
      %321 = arith.negf %in : f32
      %322 = math.exp %321 : f32
      %323 = arith.addf %322, %cst_125 : f32
      %324 = arith.divf %cst_125, %323 : f32
      linalg.yield %324 : f32
    } -> tensor<1x256x20x20xf32>
    %234 = linalg.generic {indexing_maps = [#map2, #map2, #map1], iterator_types = ["parallel", "parallel", "parallel", "parallel"]} ins(%233, %232 : tensor<1x256x20x20xf32>, tensor<1x256x20x20xf32>) outs(%118 : tensor<1x256x20x20xf32>) {
    ^bb0(%in: f32, %in_204: f32, %out: f32):
      %321 = arith.mulf %in, %in_204 : f32
      linalg.yield %321 : f32
    } -> tensor<1x256x20x20xf32>
    %235 = linalg.generic {indexing_maps = [#map, #map1], iterator_types = ["parallel", "parallel", "parallel", "parallel"]} ins(%cst_13 : tensor<256xf32>) outs(%118 : tensor<1x256x20x20xf32>) {
    ^bb0(%in: f32, %out: f32):
      linalg.yield %in : f32
    } -> tensor<1x256x20x20xf32>
    %236 = linalg.conv_2d_nchw_fchw {dilations = dense<1> : vector<2xi64>, strides = dense<1> : vector<2xi64>} ins(%234, %cst_14 : tensor<1x256x20x20xf32>, tensor<256x256x1x1xf32>) outs(%235 : tensor<1x256x20x20xf32>) -> tensor<1x256x20x20xf32>
    %237 = linalg.generic {indexing_maps = [#map2, #map1], iterator_types = ["parallel", "parallel", "parallel", "parallel"]} ins(%236 : tensor<1x256x20x20xf32>) outs(%118 : tensor<1x256x20x20xf32>) {
    ^bb0(%in: f32, %out: f32):
      %321 = arith.negf %in : f32
      %322 = math.exp %321 : f32
      %323 = arith.addf %322, %cst_125 : f32
      %324 = arith.divf %cst_125, %323 : f32
      linalg.yield %324 : f32
    } -> tensor<1x256x20x20xf32>
    %238 = linalg.generic {indexing_maps = [#map2, #map2, #map1], iterator_types = ["parallel", "parallel", "parallel", "parallel"]} ins(%237, %236 : tensor<1x256x20x20xf32>, tensor<1x256x20x20xf32>) outs(%118 : tensor<1x256x20x20xf32>) {
    ^bb0(%in: f32, %in_204: f32, %out: f32):
      %321 = arith.mulf %in, %in_204 : f32
      linalg.yield %321 : f32
    } -> tensor<1x256x20x20xf32>
    %padded_156 = tensor.pad %238 low[0, 0, 1, 1] high[0, 0, 1, 1] {
    ^bb0(%arg1: index, %arg2: index, %arg3: index, %arg4: index):
      tensor.yield %cst_124 : f32
    } : tensor<1x256x20x20xf32> to tensor<1x256x22x22xf32>
    %239 = linalg.generic {indexing_maps = [#map, #map1], iterator_types = ["parallel", "parallel", "parallel", "parallel"]} ins(%cst_11 : tensor<256xf32>) outs(%118 : tensor<1x256x20x20xf32>) {
    ^bb0(%in: f32, %out: f32):
      linalg.yield %in : f32
    } -> tensor<1x256x20x20xf32>
    %240 = linalg.conv_2d_nchw_fchw {dilations = dense<1> : vector<2xi64>, strides = dense<1> : vector<2xi64>} ins(%padded_156, %cst_12 : tensor<1x256x22x22xf32>, tensor<256x256x3x3xf32>) outs(%239 : tensor<1x256x20x20xf32>) -> tensor<1x256x20x20xf32>
    %241 = linalg.generic {indexing_maps = [#map2, #map1], iterator_types = ["parallel", "parallel", "parallel", "parallel"]} ins(%240 : tensor<1x256x20x20xf32>) outs(%118 : tensor<1x256x20x20xf32>) {
    ^bb0(%in: f32, %out: f32):
      %321 = arith.negf %in : f32
      %322 = math.exp %321 : f32
      %323 = arith.addf %322, %cst_125 : f32
      %324 = arith.divf %cst_125, %323 : f32
      linalg.yield %324 : f32
    } -> tensor<1x256x20x20xf32>
    %242 = linalg.generic {indexing_maps = [#map2, #map2, #map1], iterator_types = ["parallel", "parallel", "parallel", "parallel"]} ins(%241, %240 : tensor<1x256x20x20xf32>, tensor<1x256x20x20xf32>) outs(%118 : tensor<1x256x20x20xf32>) {
    ^bb0(%in: f32, %in_204: f32, %out: f32):
      %321 = arith.mulf %in, %in_204 : f32
      linalg.yield %321 : f32
    } -> tensor<1x256x20x20xf32>
    %243 = linalg.generic {indexing_maps = [#map, #map1], iterator_types = ["parallel", "parallel", "parallel", "parallel"]} ins(%cst_9 : tensor<256xf32>) outs(%118 : tensor<1x256x20x20xf32>) {
    ^bb0(%in: f32, %out: f32):
      linalg.yield %in : f32
    } -> tensor<1x256x20x20xf32>
    %244 = linalg.conv_2d_nchw_fchw {dilations = dense<1> : vector<2xi64>, strides = dense<1> : vector<2xi64>} ins(%concat_155, %cst_10 : tensor<1x512x20x20xf32>, tensor<256x512x1x1xf32>) outs(%243 : tensor<1x256x20x20xf32>) -> tensor<1x256x20x20xf32>
    %245 = linalg.generic {indexing_maps = [#map2, #map1], iterator_types = ["parallel", "parallel", "parallel", "parallel"]} ins(%244 : tensor<1x256x20x20xf32>) outs(%118 : tensor<1x256x20x20xf32>) {
    ^bb0(%in: f32, %out: f32):
      %321 = arith.negf %in : f32
      %322 = math.exp %321 : f32
      %323 = arith.addf %322, %cst_125 : f32
      %324 = arith.divf %cst_125, %323 : f32
      linalg.yield %324 : f32
    } -> tensor<1x256x20x20xf32>
    %246 = linalg.generic {indexing_maps = [#map2, #map2, #map1], iterator_types = ["parallel", "parallel", "parallel", "parallel"]} ins(%245, %244 : tensor<1x256x20x20xf32>, tensor<1x256x20x20xf32>) outs(%118 : tensor<1x256x20x20xf32>) {
    ^bb0(%in: f32, %in_204: f32, %out: f32):
      %321 = arith.mulf %in, %in_204 : f32
      linalg.yield %321 : f32
    } -> tensor<1x256x20x20xf32>
    %concat_157 = tensor.concat dim(1) %242, %246 : (tensor<1x256x20x20xf32>, tensor<1x256x20x20xf32>) -> tensor<1x512x20x20xf32>
    %247 = linalg.generic {indexing_maps = [#map, #map1], iterator_types = ["parallel", "parallel", "parallel", "parallel"]} ins(%cst_7 : tensor<512xf32>) outs(%113 : tensor<1x512x20x20xf32>) {
    ^bb0(%in: f32, %out: f32):
      linalg.yield %in : f32
    } -> tensor<1x512x20x20xf32>
    %248 = linalg.conv_2d_nchw_fchw {dilations = dense<1> : vector<2xi64>, strides = dense<1> : vector<2xi64>} ins(%concat_157, %cst_8 : tensor<1x512x20x20xf32>, tensor<512x512x1x1xf32>) outs(%247 : tensor<1x512x20x20xf32>) -> tensor<1x512x20x20xf32>
    %249 = linalg.generic {indexing_maps = [#map2, #map1], iterator_types = ["parallel", "parallel", "parallel", "parallel"]} ins(%248 : tensor<1x512x20x20xf32>) outs(%113 : tensor<1x512x20x20xf32>) {
    ^bb0(%in: f32, %out: f32):
      %321 = arith.negf %in : f32
      %322 = math.exp %321 : f32
      %323 = arith.addf %322, %cst_125 : f32
      %324 = arith.divf %cst_125, %323 : f32
      linalg.yield %324 : f32
    } -> tensor<1x512x20x20xf32>
    %250 = linalg.generic {indexing_maps = [#map2, #map2, #map1], iterator_types = ["parallel", "parallel", "parallel", "parallel"]} ins(%249, %248 : tensor<1x512x20x20xf32>, tensor<1x512x20x20xf32>) outs(%113 : tensor<1x512x20x20xf32>) {
    ^bb0(%in: f32, %in_204: f32, %out: f32):
      %321 = arith.mulf %in, %in_204 : f32
      linalg.yield %321 : f32
    } -> tensor<1x512x20x20xf32>
    %251 = tensor.empty() : tensor<1x255x80x80xf32>
    %252 = linalg.generic {indexing_maps = [#map, #map1], iterator_types = ["parallel", "parallel", "parallel", "parallel"]} ins(%cst_5 : tensor<255xf32>) outs(%251 : tensor<1x255x80x80xf32>) {
    ^bb0(%in: f32, %out: f32):
      linalg.yield %in : f32
    } -> tensor<1x255x80x80xf32>
    %253 = linalg.conv_2d_nchw_fchw {dilations = dense<1> : vector<2xi64>, strides = dense<1> : vector<2xi64>} ins(%202, %cst_6 : tensor<1x128x80x80xf32>, tensor<255x128x1x1xf32>) outs(%252 : tensor<1x255x80x80xf32>) -> tensor<1x255x80x80xf32>
    %expanded = tensor.expand_shape %253 [[0], [1, 2], [3], [4]] : tensor<1x255x80x80xf32> into tensor<1x3x85x80x80xf32>
    %254 = tensor.empty() : tensor<1x3x80x80x85xf32>
    %255 = linalg.generic {indexing_maps = [#map3, #map4], iterator_types = ["parallel", "parallel", "parallel", "parallel", "parallel"]} ins(%expanded : tensor<1x3x85x80x80xf32>) outs(%254 : tensor<1x3x80x80x85xf32>) {
    ^bb0(%in: f32, %out: f32):
      linalg.yield %in : f32
    } -> tensor<1x3x80x80x85xf32>
    %256 = linalg.generic {indexing_maps = [#map5, #map3], iterator_types = ["parallel", "parallel", "parallel", "parallel", "parallel"]} ins(%255 : tensor<1x3x80x80x85xf32>) outs(%254 : tensor<1x3x80x80x85xf32>) {
    ^bb0(%in: f32, %out: f32):
      linalg.yield %in : f32
    } -> tensor<1x3x80x80x85xf32>
    %257 = tensor.empty() : tensor<80xf32>
    %258 = linalg.generic {indexing_maps = [#map6], iterator_types = ["parallel"]} outs(%257 : tensor<80xf32>) {
    ^bb0(%out: f32):
      %321 = linalg.index 0 : index
      %322 = arith.index_cast %321 : index to i64
      %323 = arith.sitofp %322 : i64 to f32
      %324 = arith.addf %323, %cst_124 : f32
      linalg.yield %324 : f32
    } -> tensor<80xf32>
    %expanded_158 = tensor.expand_shape %258 [[0, 1]] : tensor<80xf32> into tensor<80x1xf32>
    %259 = tensor.empty() : tensor<80x80xf32>
    %260 = linalg.generic {indexing_maps = [#map7, #map8], iterator_types = ["parallel", "parallel"]} ins(%expanded_158 : tensor<80x1xf32>) outs(%259 : tensor<80x80xf32>) {
    ^bb0(%in: f32, %out: f32):
      linalg.yield %in : f32
    } -> tensor<80x80xf32>
    %expanded_159 = tensor.expand_shape %258 [[0, 1]] : tensor<80xf32> into tensor<1x80xf32>
    %261 = linalg.generic {indexing_maps = [#map9, #map8], iterator_types = ["parallel", "parallel"]} ins(%expanded_159 : tensor<1x80xf32>) outs(%259 : tensor<80x80xf32>) {
    ^bb0(%in: f32, %out: f32):
      linalg.yield %in : f32
    } -> tensor<80x80xf32>
    %expanded_160 = tensor.expand_shape %261 [[0], [1, 2]] : tensor<80x80xf32> into tensor<80x80x1xf32>
    %expanded_161 = tensor.expand_shape %260 [[0], [1, 2]] : tensor<80x80xf32> into tensor<80x80x1xf32>
    %concat_162 = tensor.concat dim(2) %expanded_160, %expanded_161 : (tensor<80x80x1xf32>, tensor<80x80x1xf32>) -> tensor<80x80x2xf32>
    %262 = tensor.empty() : tensor<1x3x80x80x2xf32>
    %263 = linalg.generic {indexing_maps = [#map10, #map3], iterator_types = ["parallel", "parallel", "parallel", "parallel", "parallel"]} ins(%concat_162 : tensor<80x80x2xf32>) outs(%262 : tensor<1x3x80x80x2xf32>) {
    ^bb0(%in: f32, %out: f32):
      linalg.yield %in : f32
    } -> tensor<1x3x80x80x2xf32>
    %264 = linalg.generic {indexing_maps = [#map5, #map3], iterator_types = ["parallel", "parallel", "parallel", "parallel", "parallel"]} ins(%263 : tensor<1x3x80x80x2xf32>) outs(%262 : tensor<1x3x80x80x2xf32>) {
    ^bb0(%in: f32, %out: f32):
      %321 = arith.subf %in, %cst_122 : f32
      linalg.yield %321 : f32
    } -> tensor<1x3x80x80x2xf32>
    %extracted_slice = tensor.extract_slice %cst_4[0, 0, 0] [1, 3, 2] [1, 1, 1] : tensor<3x3x2xf32> to tensor<1x3x2xf32>
    %collapsed = tensor.collapse_shape %extracted_slice [[0, 1], [2]] : tensor<1x3x2xf32> into tensor<3x2xf32>
    %extracted_slice_163 = tensor.extract_slice %cst_3[0] [1] [1] : tensor<3xf32> to tensor<1xf32>
    %collapsed_164 = tensor.collapse_shape %extracted_slice_163 [] : tensor<1xf32> into tensor<f32>
    %265 = tensor.empty() : tensor<3x2xf32>
    %266 = linalg.generic {indexing_maps = [#map8, #map11, #map8], iterator_types = ["parallel", "parallel"]} ins(%collapsed, %collapsed_164 : tensor<3x2xf32>, tensor<f32>) outs(%265 : tensor<3x2xf32>) {
    ^bb0(%in: f32, %in_204: f32, %out: f32):
      %321 = arith.mulf %in, %in_204 : f32
      linalg.yield %321 : f32
    } -> tensor<3x2xf32>
    %expanded_165 = tensor.expand_shape %266 [[0, 1], [2, 3, 4]] : tensor<3x2xf32> into tensor<1x3x1x1x2xf32>
    %267 = linalg.generic {indexing_maps = [#map12, #map3], iterator_types = ["parallel", "parallel", "parallel", "parallel", "parallel"]} ins(%expanded_165 : tensor<1x3x1x1x2xf32>) outs(%262 : tensor<1x3x80x80x2xf32>) {
    ^bb0(%in: f32, %out: f32):
      linalg.yield %in : f32
    } -> tensor<1x3x80x80x2xf32>
    %268 = linalg.generic {indexing_maps = [#map5, #map3], iterator_types = ["parallel", "parallel", "parallel", "parallel", "parallel"]} ins(%256 : tensor<1x3x80x80x85xf32>) outs(%254 : tensor<1x3x80x80x85xf32>) {
    ^bb0(%in: f32, %out: f32):
      %321 = arith.negf %in : f32
      %322 = math.exp %321 : f32
      %323 = arith.addf %322, %cst_125 : f32
      %324 = arith.divf %cst_125, %323 : f32
      linalg.yield %324 : f32
    } -> tensor<1x3x80x80x85xf32>
    %extracted_slice_166 = tensor.extract_slice %268[0, 0, 0, 0, 0] [1, 3, 80, 80, 2] [1, 1, 1, 1, 1] : tensor<1x3x80x80x85xf32> to tensor<1x3x80x80x2xf32>
    %extracted_slice_167 = tensor.extract_slice %268[0, 0, 0, 0, 2] [1, 3, 80, 80, 2] [1, 1, 1, 1, 1] : tensor<1x3x80x80x85xf32> to tensor<1x3x80x80x2xf32>
    %extracted_slice_168 = tensor.extract_slice %268[0, 0, 0, 0, 4] [1, 3, 80, 80, 81] [1, 1, 1, 1, 1] : tensor<1x3x80x80x85xf32> to tensor<1x3x80x80x81xf32>
    %269 = linalg.generic {indexing_maps = [#map5, #map3], iterator_types = ["parallel", "parallel", "parallel", "parallel", "parallel"]} ins(%extracted_slice_166 : tensor<1x3x80x80x2xf32>) outs(%262 : tensor<1x3x80x80x2xf32>) {
    ^bb0(%in: f32, %out: f32):
      %321 = arith.mulf %in, %cst_123 : f32
      linalg.yield %321 : f32
    } -> tensor<1x3x80x80x2xf32>
    %270 = linalg.generic {indexing_maps = [#map5, #map5, #map3], iterator_types = ["parallel", "parallel", "parallel", "parallel", "parallel"]} ins(%269, %264 : tensor<1x3x80x80x2xf32>, tensor<1x3x80x80x2xf32>) outs(%262 : tensor<1x3x80x80x2xf32>) {
    ^bb0(%in: f32, %in_204: f32, %out: f32):
      %321 = arith.addf %in, %in_204 : f32
      linalg.yield %321 : f32
    } -> tensor<1x3x80x80x2xf32>
    %271 = linalg.generic {indexing_maps = [#map5, #map13, #map3], iterator_types = ["parallel", "parallel", "parallel", "parallel", "parallel"]} ins(%270, %collapsed_164 : tensor<1x3x80x80x2xf32>, tensor<f32>) outs(%262 : tensor<1x3x80x80x2xf32>) {
    ^bb0(%in: f32, %in_204: f32, %out: f32):
      %321 = arith.mulf %in, %in_204 : f32
      linalg.yield %321 : f32
    } -> tensor<1x3x80x80x2xf32>
    %272 = linalg.generic {indexing_maps = [#map5, #map3], iterator_types = ["parallel", "parallel", "parallel", "parallel", "parallel"]} ins(%extracted_slice_167 : tensor<1x3x80x80x2xf32>) outs(%262 : tensor<1x3x80x80x2xf32>) {
    ^bb0(%in: f32, %out: f32):
      %321 = arith.mulf %in, %cst_123 : f32
      linalg.yield %321 : f32
    } -> tensor<1x3x80x80x2xf32>
    %273 = linalg.generic {indexing_maps = [#map5, #map3], iterator_types = ["parallel", "parallel", "parallel", "parallel", "parallel"]} ins(%272 : tensor<1x3x80x80x2xf32>) outs(%262 : tensor<1x3x80x80x2xf32>) {
    ^bb0(%in: f32, %out: f32):
      %321 = math.powf %in, %cst_123 : f32
      linalg.yield %321 : f32
    } -> tensor<1x3x80x80x2xf32>
    %274 = linalg.generic {indexing_maps = [#map5, #map5, #map3], iterator_types = ["parallel", "parallel", "parallel", "parallel", "parallel"]} ins(%273, %267 : tensor<1x3x80x80x2xf32>, tensor<1x3x80x80x2xf32>) outs(%262 : tensor<1x3x80x80x2xf32>) {
    ^bb0(%in: f32, %in_204: f32, %out: f32):
      %321 = arith.mulf %in, %in_204 : f32
      linalg.yield %321 : f32
    } -> tensor<1x3x80x80x2xf32>
    %concat_169 = tensor.concat dim(4) %271, %274, %extracted_slice_168 : (tensor<1x3x80x80x2xf32>, tensor<1x3x80x80x2xf32>, tensor<1x3x80x80x81xf32>) -> tensor<1x3x80x80x85xf32>
    %collapsed_170 = tensor.collapse_shape %concat_169 [[0], [1, 2, 3], [4]] : tensor<1x3x80x80x85xf32> into tensor<1x19200x85xf32>
    %275 = tensor.empty() : tensor<1x255x40x40xf32>
    %276 = linalg.generic {indexing_maps = [#map, #map1], iterator_types = ["parallel", "parallel", "parallel", "parallel"]} ins(%cst_1 : tensor<255xf32>) outs(%275 : tensor<1x255x40x40xf32>) {
    ^bb0(%in: f32, %out: f32):
      linalg.yield %in : f32
    } -> tensor<1x255x40x40xf32>
    %277 = linalg.conv_2d_nchw_fchw {dilations = dense<1> : vector<2xi64>, strides = dense<1> : vector<2xi64>} ins(%226, %cst_2 : tensor<1x256x40x40xf32>, tensor<255x256x1x1xf32>) outs(%276 : tensor<1x255x40x40xf32>) -> tensor<1x255x40x40xf32>
    %expanded_171 = tensor.expand_shape %277 [[0], [1, 2], [3], [4]] : tensor<1x255x40x40xf32> into tensor<1x3x85x40x40xf32>
    %278 = tensor.empty() : tensor<1x3x40x40x85xf32>
    %279 = linalg.generic {indexing_maps = [#map3, #map4], iterator_types = ["parallel", "parallel", "parallel", "parallel", "parallel"]} ins(%expanded_171 : tensor<1x3x85x40x40xf32>) outs(%278 : tensor<1x3x40x40x85xf32>) {
    ^bb0(%in: f32, %out: f32):
      linalg.yield %in : f32
    } -> tensor<1x3x40x40x85xf32>
    %280 = linalg.generic {indexing_maps = [#map5, #map3], iterator_types = ["parallel", "parallel", "parallel", "parallel", "parallel"]} ins(%279 : tensor<1x3x40x40x85xf32>) outs(%278 : tensor<1x3x40x40x85xf32>) {
    ^bb0(%in: f32, %out: f32):
      linalg.yield %in : f32
    } -> tensor<1x3x40x40x85xf32>
    %281 = tensor.empty() : tensor<40xf32>
    %282 = linalg.generic {indexing_maps = [#map6], iterator_types = ["parallel"]} outs(%281 : tensor<40xf32>) {
    ^bb0(%out: f32):
      %321 = linalg.index 0 : index
      %322 = arith.index_cast %321 : index to i64
      %323 = arith.sitofp %322 : i64 to f32
      %324 = arith.addf %323, %cst_124 : f32
      linalg.yield %324 : f32
    } -> tensor<40xf32>
    %expanded_172 = tensor.expand_shape %282 [[0, 1]] : tensor<40xf32> into tensor<40x1xf32>
    %283 = tensor.empty() : tensor<40x40xf32>
    %284 = linalg.generic {indexing_maps = [#map7, #map8], iterator_types = ["parallel", "parallel"]} ins(%expanded_172 : tensor<40x1xf32>) outs(%283 : tensor<40x40xf32>) {
    ^bb0(%in: f32, %out: f32):
      linalg.yield %in : f32
    } -> tensor<40x40xf32>
    %expanded_173 = tensor.expand_shape %282 [[0, 1]] : tensor<40xf32> into tensor<1x40xf32>
    %285 = linalg.generic {indexing_maps = [#map9, #map8], iterator_types = ["parallel", "parallel"]} ins(%expanded_173 : tensor<1x40xf32>) outs(%283 : tensor<40x40xf32>) {
    ^bb0(%in: f32, %out: f32):
      linalg.yield %in : f32
    } -> tensor<40x40xf32>
    %expanded_174 = tensor.expand_shape %285 [[0], [1, 2]] : tensor<40x40xf32> into tensor<40x40x1xf32>
    %expanded_175 = tensor.expand_shape %284 [[0], [1, 2]] : tensor<40x40xf32> into tensor<40x40x1xf32>
    %concat_176 = tensor.concat dim(2) %expanded_174, %expanded_175 : (tensor<40x40x1xf32>, tensor<40x40x1xf32>) -> tensor<40x40x2xf32>
    %286 = tensor.empty() : tensor<1x3x40x40x2xf32>
    %287 = linalg.generic {indexing_maps = [#map10, #map3], iterator_types = ["parallel", "parallel", "parallel", "parallel", "parallel"]} ins(%concat_176 : tensor<40x40x2xf32>) outs(%286 : tensor<1x3x40x40x2xf32>) {
    ^bb0(%in: f32, %out: f32):
      linalg.yield %in : f32
    } -> tensor<1x3x40x40x2xf32>
    %288 = linalg.generic {indexing_maps = [#map5, #map3], iterator_types = ["parallel", "parallel", "parallel", "parallel", "parallel"]} ins(%287 : tensor<1x3x40x40x2xf32>) outs(%286 : tensor<1x3x40x40x2xf32>) {
    ^bb0(%in: f32, %out: f32):
      %321 = arith.subf %in, %cst_122 : f32
      linalg.yield %321 : f32
    } -> tensor<1x3x40x40x2xf32>
    %extracted_slice_177 = tensor.extract_slice %cst_4[1, 0, 0] [1, 3, 2] [1, 1, 1] : tensor<3x3x2xf32> to tensor<1x3x2xf32>
    %collapsed_178 = tensor.collapse_shape %extracted_slice_177 [[0, 1], [2]] : tensor<1x3x2xf32> into tensor<3x2xf32>
    %extracted_slice_179 = tensor.extract_slice %cst_3[1] [1] [1] : tensor<3xf32> to tensor<1xf32>
    %collapsed_180 = tensor.collapse_shape %extracted_slice_179 [] : tensor<1xf32> into tensor<f32>
    %289 = linalg.generic {indexing_maps = [#map8, #map11, #map8], iterator_types = ["parallel", "parallel"]} ins(%collapsed_178, %collapsed_180 : tensor<3x2xf32>, tensor<f32>) outs(%265 : tensor<3x2xf32>) {
    ^bb0(%in: f32, %in_204: f32, %out: f32):
      %321 = arith.mulf %in, %in_204 : f32
      linalg.yield %321 : f32
    } -> tensor<3x2xf32>
    %expanded_181 = tensor.expand_shape %289 [[0, 1], [2, 3, 4]] : tensor<3x2xf32> into tensor<1x3x1x1x2xf32>
    %290 = linalg.generic {indexing_maps = [#map12, #map3], iterator_types = ["parallel", "parallel", "parallel", "parallel", "parallel"]} ins(%expanded_181 : tensor<1x3x1x1x2xf32>) outs(%286 : tensor<1x3x40x40x2xf32>) {
    ^bb0(%in: f32, %out: f32):
      linalg.yield %in : f32
    } -> tensor<1x3x40x40x2xf32>
    %291 = linalg.generic {indexing_maps = [#map5, #map3], iterator_types = ["parallel", "parallel", "parallel", "parallel", "parallel"]} ins(%280 : tensor<1x3x40x40x85xf32>) outs(%278 : tensor<1x3x40x40x85xf32>) {
    ^bb0(%in: f32, %out: f32):
      %321 = arith.negf %in : f32
      %322 = math.exp %321 : f32
      %323 = arith.addf %322, %cst_125 : f32
      %324 = arith.divf %cst_125, %323 : f32
      linalg.yield %324 : f32
    } -> tensor<1x3x40x40x85xf32>
    %extracted_slice_182 = tensor.extract_slice %291[0, 0, 0, 0, 0] [1, 3, 40, 40, 2] [1, 1, 1, 1, 1] : tensor<1x3x40x40x85xf32> to tensor<1x3x40x40x2xf32>
    %extracted_slice_183 = tensor.extract_slice %291[0, 0, 0, 0, 2] [1, 3, 40, 40, 2] [1, 1, 1, 1, 1] : tensor<1x3x40x40x85xf32> to tensor<1x3x40x40x2xf32>
    %extracted_slice_184 = tensor.extract_slice %291[0, 0, 0, 0, 4] [1, 3, 40, 40, 81] [1, 1, 1, 1, 1] : tensor<1x3x40x40x85xf32> to tensor<1x3x40x40x81xf32>
    %292 = linalg.generic {indexing_maps = [#map5, #map3], iterator_types = ["parallel", "parallel", "parallel", "parallel", "parallel"]} ins(%extracted_slice_182 : tensor<1x3x40x40x2xf32>) outs(%286 : tensor<1x3x40x40x2xf32>) {
    ^bb0(%in: f32, %out: f32):
      %321 = arith.mulf %in, %cst_123 : f32
      linalg.yield %321 : f32
    } -> tensor<1x3x40x40x2xf32>
    %293 = linalg.generic {indexing_maps = [#map5, #map5, #map3], iterator_types = ["parallel", "parallel", "parallel", "parallel", "parallel"]} ins(%292, %288 : tensor<1x3x40x40x2xf32>, tensor<1x3x40x40x2xf32>) outs(%286 : tensor<1x3x40x40x2xf32>) {
    ^bb0(%in: f32, %in_204: f32, %out: f32):
      %321 = arith.addf %in, %in_204 : f32
      linalg.yield %321 : f32
    } -> tensor<1x3x40x40x2xf32>
    %294 = linalg.generic {indexing_maps = [#map5, #map13, #map3], iterator_types = ["parallel", "parallel", "parallel", "parallel", "parallel"]} ins(%293, %collapsed_180 : tensor<1x3x40x40x2xf32>, tensor<f32>) outs(%286 : tensor<1x3x40x40x2xf32>) {
    ^bb0(%in: f32, %in_204: f32, %out: f32):
      %321 = arith.mulf %in, %in_204 : f32
      linalg.yield %321 : f32
    } -> tensor<1x3x40x40x2xf32>
    %295 = linalg.generic {indexing_maps = [#map5, #map3], iterator_types = ["parallel", "parallel", "parallel", "parallel", "parallel"]} ins(%extracted_slice_183 : tensor<1x3x40x40x2xf32>) outs(%286 : tensor<1x3x40x40x2xf32>) {
    ^bb0(%in: f32, %out: f32):
      %321 = arith.mulf %in, %cst_123 : f32
      linalg.yield %321 : f32
    } -> tensor<1x3x40x40x2xf32>
    %296 = linalg.generic {indexing_maps = [#map5, #map3], iterator_types = ["parallel", "parallel", "parallel", "parallel", "parallel"]} ins(%295 : tensor<1x3x40x40x2xf32>) outs(%286 : tensor<1x3x40x40x2xf32>) {
    ^bb0(%in: f32, %out: f32):
      %321 = math.powf %in, %cst_123 : f32
      linalg.yield %321 : f32
    } -> tensor<1x3x40x40x2xf32>
    %297 = linalg.generic {indexing_maps = [#map5, #map5, #map3], iterator_types = ["parallel", "parallel", "parallel", "parallel", "parallel"]} ins(%296, %290 : tensor<1x3x40x40x2xf32>, tensor<1x3x40x40x2xf32>) outs(%286 : tensor<1x3x40x40x2xf32>) {
    ^bb0(%in: f32, %in_204: f32, %out: f32):
      %321 = arith.mulf %in, %in_204 : f32
      linalg.yield %321 : f32
    } -> tensor<1x3x40x40x2xf32>
    %concat_185 = tensor.concat dim(4) %294, %297, %extracted_slice_184 : (tensor<1x3x40x40x2xf32>, tensor<1x3x40x40x2xf32>, tensor<1x3x40x40x81xf32>) -> tensor<1x3x40x40x85xf32>
    %collapsed_186 = tensor.collapse_shape %concat_185 [[0], [1, 2, 3], [4]] : tensor<1x3x40x40x85xf32> into tensor<1x4800x85xf32>
    %298 = tensor.empty() : tensor<1x255x20x20xf32>
    %299 = linalg.generic {indexing_maps = [#map, #map1], iterator_types = ["parallel", "parallel", "parallel", "parallel"]} ins(%cst : tensor<255xf32>) outs(%298 : tensor<1x255x20x20xf32>) {
    ^bb0(%in: f32, %out: f32):
      linalg.yield %in : f32
    } -> tensor<1x255x20x20xf32>
    %300 = linalg.conv_2d_nchw_fchw {dilations = dense<1> : vector<2xi64>, strides = dense<1> : vector<2xi64>} ins(%250, %cst_0 : tensor<1x512x20x20xf32>, tensor<255x512x1x1xf32>) outs(%299 : tensor<1x255x20x20xf32>) -> tensor<1x255x20x20xf32>
    %expanded_187 = tensor.expand_shape %300 [[0], [1, 2], [3], [4]] : tensor<1x255x20x20xf32> into tensor<1x3x85x20x20xf32>
    %301 = tensor.empty() : tensor<1x3x20x20x85xf32>
    %302 = linalg.generic {indexing_maps = [#map3, #map4], iterator_types = ["parallel", "parallel", "parallel", "parallel", "parallel"]} ins(%expanded_187 : tensor<1x3x85x20x20xf32>) outs(%301 : tensor<1x3x20x20x85xf32>) {
    ^bb0(%in: f32, %out: f32):
      linalg.yield %in : f32
    } -> tensor<1x3x20x20x85xf32>
    %303 = linalg.generic {indexing_maps = [#map5, #map3], iterator_types = ["parallel", "parallel", "parallel", "parallel", "parallel"]} ins(%302 : tensor<1x3x20x20x85xf32>) outs(%301 : tensor<1x3x20x20x85xf32>) {
    ^bb0(%in: f32, %out: f32):
      linalg.yield %in : f32
    } -> tensor<1x3x20x20x85xf32>
    %304 = tensor.empty() : tensor<20xf32>
    %305 = linalg.generic {indexing_maps = [#map6], iterator_types = ["parallel"]} outs(%304 : tensor<20xf32>) {
    ^bb0(%out: f32):
      %321 = linalg.index 0 : index
      %322 = arith.index_cast %321 : index to i64
      %323 = arith.sitofp %322 : i64 to f32
      %324 = arith.addf %323, %cst_124 : f32
      linalg.yield %324 : f32
    } -> tensor<20xf32>
    %expanded_188 = tensor.expand_shape %305 [[0, 1]] : tensor<20xf32> into tensor<20x1xf32>
    %306 = tensor.empty() : tensor<20x20xf32>
    %307 = linalg.generic {indexing_maps = [#map7, #map8], iterator_types = ["parallel", "parallel"]} ins(%expanded_188 : tensor<20x1xf32>) outs(%306 : tensor<20x20xf32>) {
    ^bb0(%in: f32, %out: f32):
      linalg.yield %in : f32
    } -> tensor<20x20xf32>
    %expanded_189 = tensor.expand_shape %305 [[0, 1]] : tensor<20xf32> into tensor<1x20xf32>
    %308 = linalg.generic {indexing_maps = [#map9, #map8], iterator_types = ["parallel", "parallel"]} ins(%expanded_189 : tensor<1x20xf32>) outs(%306 : tensor<20x20xf32>) {
    ^bb0(%in: f32, %out: f32):
      linalg.yield %in : f32
    } -> tensor<20x20xf32>
    %expanded_190 = tensor.expand_shape %308 [[0], [1, 2]] : tensor<20x20xf32> into tensor<20x20x1xf32>
    %expanded_191 = tensor.expand_shape %307 [[0], [1, 2]] : tensor<20x20xf32> into tensor<20x20x1xf32>
    %concat_192 = tensor.concat dim(2) %expanded_190, %expanded_191 : (tensor<20x20x1xf32>, tensor<20x20x1xf32>) -> tensor<20x20x2xf32>
    %309 = tensor.empty() : tensor<1x3x20x20x2xf32>
    %310 = linalg.generic {indexing_maps = [#map10, #map3], iterator_types = ["parallel", "parallel", "parallel", "parallel", "parallel"]} ins(%concat_192 : tensor<20x20x2xf32>) outs(%309 : tensor<1x3x20x20x2xf32>) {
    ^bb0(%in: f32, %out: f32):
      linalg.yield %in : f32
    } -> tensor<1x3x20x20x2xf32>
    %311 = linalg.generic {indexing_maps = [#map5, #map3], iterator_types = ["parallel", "parallel", "parallel", "parallel", "parallel"]} ins(%310 : tensor<1x3x20x20x2xf32>) outs(%309 : tensor<1x3x20x20x2xf32>) {
    ^bb0(%in: f32, %out: f32):
      %321 = arith.subf %in, %cst_122 : f32
      linalg.yield %321 : f32
    } -> tensor<1x3x20x20x2xf32>
    %extracted_slice_193 = tensor.extract_slice %cst_4[2, 0, 0] [1, 3, 2] [1, 1, 1] : tensor<3x3x2xf32> to tensor<1x3x2xf32>
    %collapsed_194 = tensor.collapse_shape %extracted_slice_193 [[0, 1], [2]] : tensor<1x3x2xf32> into tensor<3x2xf32>
    %extracted_slice_195 = tensor.extract_slice %cst_3[2] [1] [1] : tensor<3xf32> to tensor<1xf32>
    %collapsed_196 = tensor.collapse_shape %extracted_slice_195 [] : tensor<1xf32> into tensor<f32>
    %312 = linalg.generic {indexing_maps = [#map8, #map11, #map8], iterator_types = ["parallel", "parallel"]} ins(%collapsed_194, %collapsed_196 : tensor<3x2xf32>, tensor<f32>) outs(%265 : tensor<3x2xf32>) {
    ^bb0(%in: f32, %in_204: f32, %out: f32):
      %321 = arith.mulf %in, %in_204 : f32
      linalg.yield %321 : f32
    } -> tensor<3x2xf32>
    %expanded_197 = tensor.expand_shape %312 [[0, 1], [2, 3, 4]] : tensor<3x2xf32> into tensor<1x3x1x1x2xf32>
    %313 = linalg.generic {indexing_maps = [#map12, #map3], iterator_types = ["parallel", "parallel", "parallel", "parallel", "parallel"]} ins(%expanded_197 : tensor<1x3x1x1x2xf32>) outs(%309 : tensor<1x3x20x20x2xf32>) {
    ^bb0(%in: f32, %out: f32):
      linalg.yield %in : f32
    } -> tensor<1x3x20x20x2xf32>
    %314 = linalg.generic {indexing_maps = [#map5, #map3], iterator_types = ["parallel", "parallel", "parallel", "parallel", "parallel"]} ins(%303 : tensor<1x3x20x20x85xf32>) outs(%301 : tensor<1x3x20x20x85xf32>) {
    ^bb0(%in: f32, %out: f32):
      %321 = arith.negf %in : f32
      %322 = math.exp %321 : f32
      %323 = arith.addf %322, %cst_125 : f32
      %324 = arith.divf %cst_125, %323 : f32
      linalg.yield %324 : f32
    } -> tensor<1x3x20x20x85xf32>
    %extracted_slice_198 = tensor.extract_slice %314[0, 0, 0, 0, 0] [1, 3, 20, 20, 2] [1, 1, 1, 1, 1] : tensor<1x3x20x20x85xf32> to tensor<1x3x20x20x2xf32>
    %extracted_slice_199 = tensor.extract_slice %314[0, 0, 0, 0, 2] [1, 3, 20, 20, 2] [1, 1, 1, 1, 1] : tensor<1x3x20x20x85xf32> to tensor<1x3x20x20x2xf32>
    %extracted_slice_200 = tensor.extract_slice %314[0, 0, 0, 0, 4] [1, 3, 20, 20, 81] [1, 1, 1, 1, 1] : tensor<1x3x20x20x85xf32> to tensor<1x3x20x20x81xf32>
    %315 = linalg.generic {indexing_maps = [#map5, #map3], iterator_types = ["parallel", "parallel", "parallel", "parallel", "parallel"]} ins(%extracted_slice_198 : tensor<1x3x20x20x2xf32>) outs(%309 : tensor<1x3x20x20x2xf32>) {
    ^bb0(%in: f32, %out: f32):
      %321 = arith.mulf %in, %cst_123 : f32
      linalg.yield %321 : f32
    } -> tensor<1x3x20x20x2xf32>
    %316 = linalg.generic {indexing_maps = [#map5, #map5, #map3], iterator_types = ["parallel", "parallel", "parallel", "parallel", "parallel"]} ins(%315, %311 : tensor<1x3x20x20x2xf32>, tensor<1x3x20x20x2xf32>) outs(%309 : tensor<1x3x20x20x2xf32>) {
    ^bb0(%in: f32, %in_204: f32, %out: f32):
      %321 = arith.addf %in, %in_204 : f32
      linalg.yield %321 : f32
    } -> tensor<1x3x20x20x2xf32>
    %317 = linalg.generic {indexing_maps = [#map5, #map13, #map3], iterator_types = ["parallel", "parallel", "parallel", "parallel", "parallel"]} ins(%316, %collapsed_196 : tensor<1x3x20x20x2xf32>, tensor<f32>) outs(%309 : tensor<1x3x20x20x2xf32>) {
    ^bb0(%in: f32, %in_204: f32, %out: f32):
      %321 = arith.mulf %in, %in_204 : f32
      linalg.yield %321 : f32
    } -> tensor<1x3x20x20x2xf32>
    %318 = linalg.generic {indexing_maps = [#map5, #map3], iterator_types = ["parallel", "parallel", "parallel", "parallel", "parallel"]} ins(%extracted_slice_199 : tensor<1x3x20x20x2xf32>) outs(%309 : tensor<1x3x20x20x2xf32>) {
    ^bb0(%in: f32, %out: f32):
      %321 = arith.mulf %in, %cst_123 : f32
      linalg.yield %321 : f32
    } -> tensor<1x3x20x20x2xf32>
    %319 = linalg.generic {indexing_maps = [#map5, #map3], iterator_types = ["parallel", "parallel", "parallel", "parallel", "parallel"]} ins(%318 : tensor<1x3x20x20x2xf32>) outs(%309 : tensor<1x3x20x20x2xf32>) {
    ^bb0(%in: f32, %out: f32):
      %321 = math.powf %in, %cst_123 : f32
      linalg.yield %321 : f32
    } -> tensor<1x3x20x20x2xf32>
    %320 = linalg.generic {indexing_maps = [#map5, #map5, #map3], iterator_types = ["parallel", "parallel", "parallel", "parallel", "parallel"]} ins(%319, %313 : tensor<1x3x20x20x2xf32>, tensor<1x3x20x20x2xf32>) outs(%309 : tensor<1x3x20x20x2xf32>) {
    ^bb0(%in: f32, %in_204: f32, %out: f32):
      %321 = arith.mulf %in, %in_204 : f32
      linalg.yield %321 : f32
    } -> tensor<1x3x20x20x2xf32>
    %concat_201 = tensor.concat dim(4) %317, %320, %extracted_slice_200 : (tensor<1x3x20x20x2xf32>, tensor<1x3x20x20x2xf32>, tensor<1x3x20x20x81xf32>) -> tensor<1x3x20x20x85xf32>
    %collapsed_202 = tensor.collapse_shape %concat_201 [[0], [1, 2, 3], [4]] : tensor<1x3x20x20x85xf32> into tensor<1x1200x85xf32>
    %concat_203 = tensor.concat dim(1) %collapsed_170, %collapsed_186, %collapsed_202 : (tensor<1x19200x85xf32>, tensor<1x4800x85xf32>, tensor<1x1200x85xf32>) -> tensor<1x25200x85xf32>
    return %concat_203 : tensor<1x25200x85xf32>
  }
}
